example/92_mlp_model.pt (torch, 42140 bytes, 11 tensors)

weight f4 [64, 4]
0	0x3b7c5779	0.0038504286
1	0x3c372237	0.011177591
2	0x3c8f8f31	0.017524334
3	0x3ca7f7a5	0.020503828
4	0x3df8786c	0.12132344
5	0xbea2c5aa	-0.3179143
6	0xbe97bff6	-0.29638642
7	0xbeeae90c	-0.45880926
8	0x3c1803b2	0.009278225
9	0x3ca1a2be	0.019730922
10	0x3b3b7184	0.0028601596
11	0x3cc09f46	0.023513447
12	0xbe3aecc2	-0.18254378
13	0xbd803112	-0.062593594
14	0xbd93a3f6	-0.072090074
15	0x3e25f986	0.16208467
16	0xbf0becbf	-0.5465812
17	0x3e852565	0.26005092
18	0xbed52590	-0.4163022
19	0xbf08c2cf	-0.53422254
20	0x3b715876	0.0036826408
21	0x3bd6e3f0	0.006557934
22	0x3d4efd19	0.05053434
23	0xbc2700af	-0.010193034
24	0xbf3b2b8f	-0.7311334
25	0xbe59e1d3	-0.21277551
26	0x3ddbb4f9	0.10727877
27	0xbe748843	-0.23880105
28	0x3c6c0ef5	0.014407863
29	0x3ab67693	0.0013920836
30	0x3d199e50	0.037504494
31	0xbbd898e0	-0.006610021
32	0x3e2e8f5a	0.17046872
33	0x3e03cbf8	0.12870777
34	0x3cc70eaf	0.024298994
35	0xbf226c34	-0.63446355
36	0x3c40eddc	0.01177546
37	0x3c7dee2c	0.015498679
38	0x3ccd813b	0.025086036
39	0xbaa9129c	-0.0012899223
40	0x3e108806	0.14114389
41	0xbf342131	-0.70363146
42	0x3def4fbc	0.1168513
43	0x3e268bb1	0.16264226
44	0x3c5c9f0c	0.013465654
45	0x3c8a42d4	0.01687757
46	0x3cd8b029	0.026451187
47	0x3a88a62b	0.0010425498
48	0x3d980301	0.07422448
49	0xbd060858	-0.0327228
50	0xbbaa4e4f	-0.0051973234
51	0x3c5d2d11	0.013499514
52	0x3be46782	0.006970347
53	0x3d8f5dfc	0.07000348
54	0xbcc492fc	-0.023995869
55	0xbbae4c5d	-0.005319162
56	0x3d1d8bbd	0.038463343
57	0x3e5542cb	0.20826261
58	0xbf1c4de8	-0.61056376
59	0x3e046bc3	0.12931733
60	0x3ba19e85	0.004932227
61	0x3c072e18	0.008250736
62	0x3bf51639	0.007479456
63	0x3d0c44a0	0.034245133
64	0xbf3ec025	-0.7451194
65	0x3e41a3f2	0.18910196
66	0x3e0091c2	0.12555602
67	0x3d7e77b7	0.062125888
68	0xbf77758f	-0.96663755
69	0xbe4fa8af	-0.20279191
70	0xbe9a4179	-0.30128077
71	0x3ebc16aa	0.3673604
72	0x3e0095e8	0.12557185
73	0x39ccc5b1	0.00039057204
74	0x3e158817	0.14602695
75	0xbec6501a	-0.38732988
76	0x3ced3c0d	0.028959299
77	0x3d2e2c39	0.042522643
78	0x3d0c98ff	0.034325596
79	0x3d0f6960	0.035012603
80	0x3cbf04fc	0.023317806
81	0xbc983837	-0.018581493
82	0xbbb0a32d	-0.005390546
83	0xbae3d600	-0.0017382503
84	0x3d07b8fd	0.033135403
85	0x3daf1e8f	0.085507505
86	0xbd75675f	-0.059913035
87	0x3e03d539	0.12874307
88	0x3db6d813	0.08927932
89	0xbf0f4395	-0.55962497
90	0x3e03a645	0.12856396
91	0x3dcad47e	0.09903811
92	0xbb386ffc	-0.002814292
93	0x3c117d47	0.008879966
94	0x3be44194	0.0069658253
95	0x3d179390	0.03700596
96	0x3c1d29e1	0.009592504
97	0x3bee274a	0.007267867
98	0x3d4775e7	0.048696425
99	0xbc17c888	-0.009264119
100	0xbe8243d4	-0.25442374
101	0xbdf13840	-0.11778307
102	0xbe2f7f7a	-0.17138472
103	0x3b28b64e	0.0025743428
104	0xbedb69fc	-0.42854297
105	0x3e1cf1c9	0.15326609
106	0x3d9d98ec	0.07695183
107	0xbcc3fecf	-0.023925213
108	0x3dcba683	0.09943869
109	0x3e0e2955	0.13882954
110	0x3d0ad038	0.03388998
111	0xbf0624ea	-0.52400076
112	0x3db2a926	0.08723669
113	0x3dcbd46c	0.09952626
114	0x3b98dadc	0.004664762
115	0xbdb5fbbc	-0.08885905
116	0x3d5ae8ed	0.05344479
117	0x3de33cd1	0.11095584
118	0x3e141ccf	0.14464115
119	0xbee44a30	-0.4458785
120	0xbe2e2525	-0.17006357
121	0xbed62709	-0.41826656
122	0xbe2653c5	-0.16242893
123	0xbe651f66	-0.22375259
124	0x3dd1a217	0.10235994
125	0xbd6bd6a1	-0.057577733
126	0x3a044926	0.00050463004
127	0x3b56583f	0.0032706407
128	0x3eb1efd8	0.347533
129	0x3e1e851a	0.15480462
130	0xbe99f1ad	-0.30067196
131	0xbf209a63	-0.62735575
132	0xbf054039	-0.5205112
133	0x3e8fc149	0.28077152
134	0xbf0d7adf	-0.5526561
135	0xbeeb4b9d	-0.45956126
136	0xbe079953	-0.13242082
137	0xbee40af4	-0.44539607
138	0x3dfe90fc	0.12429997
139	0xbf0cf980	-0.55068207
140	0x3ced4e8e	0.028968122
141	0x3aeea4e8	0.0018207105
142	0x3c45a273	0.012062657
143	0x3c176614	0.009240646
144	0x3b4893d7	0.0030605698
145	0x3bad28ac	0.0052843895
146	0x3c5cf8d8	0.013487063
147	0x3c34fcfc	0.011046644
148	0x3a48bcd4	0.0007657532
149	0x3d87901f	0.06619286
150	0xbcdf628e	-0.027268674
151	0xba238e0b	-0.00062391226
152	0x3be3b5eb	0.0069491765
153	0x3c018c94	0.007907052
154	0x3c98af11	0.018638166
155	0x3c8ebbd8	0.017423555
156	0x3c4d9cd4	0.012549598
157	0x3cc633e4	0.024194665
158	0xbb7e2472	-0.0038779047
159	0x3caf3687	0.021388305
160	0x3d8ad1f6	0.06778328
161	0x3db2d35e	0.08731721
162	0x3dafe914	0.08589378
163	0x3db19a46	0.086720034
164	0x3ccfd022	0.0253678
165	0x3c465a17	0.01210644
166	0x3b3d7577	0.0028909126
167	0x3c2cf9b6	0.010557583
168	0x3d14c2b0	0.03631848
169	0x3d2af0f2	0.04173369
170	0x3d44adf7	0.04801747
171	0x3c70c39c	0.014695074
172	0x3e83e255	0.25758615
173	0xbca74e50	-0.020423084
174	0xbf02586d	-0.5091618
175	0x3cbfc466	0.02340908
176	0xbf114ec7	-0.5676083
177	0xbf321697	-0.6956572
178	0x3e9b9088	0.30383706
179	0xbd85cd00	-0.06533241
180	0xbc421665	-0.01184616
181	0xbd806322	-0.06268908
182	0x3c924cdd	0.017858917
183	0x3ddd18e1	0.10795761
184	0x3e09d3d3	0.13459711
185	0x3db40679	0.08790297
186	0xbf3b54dd	-0.73176366
187	0x3e2f7603	0.17134862
188	0xbe1817ed	-0.14852877
189	0xbe6a4901	-0.22879411
190	0xbe6e0aa9	-0.23246254
191	0xbeb33e25	-0.3500835
192	0xbf2ffa81	-0.68741614
193	0x3e08d282	0.13361552
194	0x3e1c4e9c	0.15264362
195	0x3e03a832	0.1285713
196	0xbe5807b6	-0.21096691
197	0xbe0a6561	-0.13515235
198	0x3ebae0e3	0.364997
199	0xbf09d087	-0.5383381
200	0x3d8f911c	0.07010099
201	0xbec1d331	-0.3785644
202	0x3d23319f	0.039842244
203	0x3de4d881	0.11174107
204	0x3c44f344	0.01202089
205	0x3c8d86fc	0.01727628
206	0x3cb6a560	0.022295654
207	0x3b4525cd	0.0030082345
208	0x3b33c1e2	0.0027428796
209	0x3be822cc	0.0070842262
210	0x3c16b426	0.009198224
211	0x3d0263ae	0.031833343
212	0x3b7a145d	0.003815911
213	0x3c0c6849	0.008569785
214	0x3bad0146	0.005279693
215	0x3d15aac2	0.0365398
216	0x3c24a536	0.010049155
217	0x3c2db76b	0.010602812
218	0x3d046f24	0.032332554
219	0x3ab6a26c	0.0013933904
220	0x3d62b0ab	0.055344265
221	0xbc0e929d	-0.0087019475
222	0xbae0fa02	-0.0017164352
223	0xba28854b	-0.00064285536
224	0x3da06a58	0.078327835
225	0x3d77abfb	0.060466748
226	0xbef4426c	-0.47706926
227	0x3e09f7e2	0.13473466
228	0xbc104ea8	-0.008807816
229	0xba9d392a	-0.0011995186
230	0x3d861bda	0.06548281
231	0xbc0c4b7b	-0.008562918
232	0x3dc225ae	0.09479843
233	0xbf16757f	-0.58773035
234	0x3e36e11e	0.17859313
235	0x3d96248c	0.073311895
236	0x3c95ca7a	0.018285025
237	0x3cd9b5e8	0.026575997
238	0x3d0ef69f	0.034903165
239	0x3cd21fd7	0.025649948
240	0x3c9f7373	0.01946423
241	0x3d04d4b3	0.03242941
242	0x3d066193	0.032807898
243	0x3cd6bb85	0.026212463
244	0xba88db03	-0.0010441247
245	0x3c0c861b	0.008576895
246	0x3b83d588	0.0040232576
247	0x3d247589	0.040151153
248	0xbe173883	-0.14767651
249	0xbe75781b	-0.23971598
250	0xbe1e79e5	-0.15476187
251	0xbe6f86fe	-0.23391339
252	0x3b7a09de	0.0038152854
253	0x3c7a2cf3	0.015269506
254	0x3af6b70b	0.0018822862
255	0x3cef6ea9	0.029227572

bias f4 [64]
0	0xc083e279	-4.1213956
1	0x40309923	2.7593467
2	0xc07cae91	-3.9481547
3	0xc03d609e	-2.959022
4	0x3fe97e0b	1.824159
5	0xc049be1f	-3.152229
6	0x3f082ae0	0.5319042
7	0xc0614566	-3.5198607
8	0xbf1e639f	-0.6187076
9	0xc071ff51	-3.7812083
10	0xbe7e14cb	-0.2481262
11	0xc082d007	-4.087894
12	0xc036fc77	-2.8591592
13	0xc041f92a	-3.0308328
14	0xbfe6c4cf	-1.8028811
15	0xc073f154	-3.8116045
16	0xbf8ca4ab	-1.0987753
17	0xbfd6f2fc	-1.6792903
18	0xbfc8c5e8	-1.5685396
19	0xc0599399	-3.3996336
20	0xc01fdf4e	-2.4980044
21	0xc06f2bd4	-3.73705
22	0xbfd8db47	-1.6941918
23	0xc078d9f1	-3.888302
24	0xc07f357f	-3.9876401
25	0x3fdbf978	1.7185507
26	0xbfbac6b4	-1.4591889
27	0xbf89ad4a	-1.0756009
28	0xc033e693	-2.8109481
29	0xc0113a7e	-2.269195
30	0x404ce269	3.201319
31	0xbff87993	-1.9412102
32	0x3d5bf284	0.053698078
33	0x3ff05178	1.8774862
34	0x3fda1727	1.7038316
35	0xc07e54cf	-3.9739263
36	0xc076923f	-3.8526762
37	0xc0194e10	-2.3953896
38	0xc082cd05	-4.087527
39	0xc0829ea0	-4.0818634
40	0xc020c075	-2.5117466
41	0xc0623687	-3.534578
42	0xc06d24cd	-3.7053711
43	0xc018eb55	-2.3893635
44	0xbe9c3bc3	-0.30514345
45	0xc0728c33	-3.789807
46	0xbebe25d5	-0.3713824
47	0x403ea563	2.9788444
48	0xbf98c67b	-1.1935571
49	0xbf2781aa	-0.65432227
50	0xbffe3971	-1.986128
51	0xc082870e	-4.078986
52	0xc07afaa3	-3.9215477
53	0xc0801ca5	-4.0034966
54	0xc086226f	-4.1917033
55	0xc01878a3	-2.382363
56	0xbf06e1cf	-0.52688307
57	0xc03727ba	-2.8617997
58	0xbf407eab	-0.7519328
59	0xc049879b	-3.1489017
60	0xc083e339	-4.121487
61	0xc0480f2a	-3.1259255
62	0x406f8c4a	3.7429376
63	0xc059c206	-3.4024673

weight f4 [64, 64]
0	0xbf89e17e	-1.077194
1	0x3e1f7a18	0.15573919
2	0xbee39c7b	-0.44455323
3	0x3e279a7d	0.16367526
4	0x3e2670e2	0.16253999
5	0xbe505879	-0.2034625
6	0x3e1644bd	0.14674659
7	0xbe78b218	-0.24286687
8	0xbdc69ce5	-0.09697894
9	0xbf0a8332	-0.5410644
10	0xbda5fafc	-0.08104512
11	0xbf3f41ec	-0.74709964
12	0xbcc2c1d9	-0.023774074
13	0xbe0607bb	-0.13088886
14	0xbe97e75e	-0.29668707
15	0xbe9d5f18	-0.30736613
16	0xbe0fcfef	-0.14044164
17	0x3db2ecbc	0.0873656
18	0xbe4de8ec	-0.20108384
19	0x3c299dba	0.010352546
20	0xbd58a6b1	-0.052893344
21	0xbb172d8d	-0.0023067922
22	0xbe6e526d	-0.2327363
23	0xbe7fd12d	-0.24982138
24	0xbe45c4e9	-0.19313397
25	0x3e15c8a1	0.14627315
26	0xbe075f98	-0.1322006
27	0xbd33d760	-0.04390657
28	0xbae8f81d	-0.0017774139
29	0xbe8f2738	-0.2795961
30	0x3e3308a6	0.17483768
31	0xbb9c900f	-0.0047779153
32	0xbd0406c3	-0.03223301
33	0x3d8a6e76	0.0675935
34	0x3e4858cd	0.19565125
35	0xbea5bbcb	-0.32369837
36	0xbf9c30c6	-1.2202384
37	0xbddab808	-0.106796324
38	0xbf96a0f8	-1.1767874
39	0xbf40f59e	-0.7537478
40	0xbb77afb9	-0.0037793948
41	0xbe8d0d0c	-0.27549016
42	0xba405822	-0.00073373516
43	0xbe477d69	-0.19481434
44	0x3dc58e76	0.09646313
45	0xbc047ea6	-0.008086836
46	0xbeb3e78f	-0.35137603
47	0x3e01e5b0	0.12685275
48	0xbe006beb	-0.12541167
49	0x3e2433ed	0.16035433
50	0xbe20672b	-0.15664355
51	0xbf7562cb	-0.9585387
52	0xbeedd192	-0.46448952
53	0xbec4beea	-0.38426906
54	0xbec79812	-0.38983208
55	0xbcdb145e	-0.02674311
56	0xbde9c5d4	-0.11414686
57	0xbda1d46c	-0.079018444
58	0xbe18ce08	-0.14922345
59	0xbc0a0365	-0.008423661
60	0xbd0ffee0	-0.035155177
61	0xbde5f921	-0.11229158
62	0x3e4ee575	0.20204718
63	0xbf319602	-0.6936952
64	0xbe7bfd28	-0.2460829
65	0x3ed3c79c	0.41363227
66	0xbe5fff0b	-0.21874635
67	0x3c134a2a	0.00898985
68	0x3e996e07	0.29966757
69	0xbe55d078	-0.20880306
70	0x3e5024a1	0.20326473
71	0xbe130bbb	-0.14359944
72	0xbd93b5c1	-0.07212401
73	0xbc2fec39	-0.010737472
74	0xbd4deecf	-0.050276574
75	0xbd2618ee	-0.04055112
76	0xbdfceafa	-0.12349506
77	0xbdfd6117	-0.12372034
78	0xbbcb25a6	-0.0061995564
79	0xbeab3f50	-0.3344674
80	0xbc227da3	-0.009917649
81	0x3e5719fa	0.21006003
82	0xbdf38a44	-0.118916065
83	0xbd89dd73	-0.06731691
84	0xbeb26461	-0.34842208
85	0xbca6fda0	-0.02038461
86	0xbda77b3b	-0.08177801
87	0xbe3e1062	-0.18560937
88	0xbe4e5311	-0.20148875
89	0x3f35a471	0.7095404
90	0xbd83efcd	-0.06442223
91	0xbd8e7b67	-0.06957131
92	0xbdb683c4	-0.08911851
93	0xbdcf6d32	-0.10128249
94	0x3eb4fd05	0.3534929
95	0xbe131f46	-0.14367399
96	0x3db68687	0.08912378
97	0x3e818fe0	0.2530508
98	0x3ec3d07a	0.38244992
99	0xbed0c46d	-0.4077486
100	0xbe437235	-0.19086535
101	0xbdb691e0	-0.08914542
102	0xbe5104d1	-0.20411994
103	0xbeab5a3a	-0.33467275
104	0xbcf0d49d	-0.029398257
105	0xbe8ee8d4	-0.2791201
106	0xbdb6b2ff	-0.089208595
107	0xbbf4daad	-0.0074723572
108	0x3e807ed8	0.25096774
109	0xbe2ce947	-0.16885863
110	0x3cb62edd	0.022239143
111	0x3ed10aba	0.40828496
112	0xbcdd2f93	-0.027000224
113	0xbc66f4bc	-0.014096435
114	0xbc9fd353	-0.019509947
115	0xbdc2158d	-0.09476767
116	0xbe419780	-0.18905449
117	0xbe35a2aa	-0.17737833
118	0xbd96e1e2	-0.073673025
119	0xbe123b39	-0.14280404
120	0x3c2e1bfe	0.010626791
121	0xbe6a0f44	-0.22857386
122	0xbde80b88	-0.113303244
123	0xbd5c9c73	-0.05386014
124	0xbdcfdaff	-0.10149192
125	0xbe781e41	-0.24230291
126	0x3ec33504	0.38126385
127	0xbe75d854	-0.24008304
128	0xbf65181b	-0.8948991
129	0x3e6e7f43	0.23290734
130	0xbec9bebe	-0.39403337
131	0xbe1a8ed7	-0.15093552
132	0x3ea9cd44	0.33164418
133	0xbdc7cd62	-0.097559705
134	0x3e9a20e0	0.30103207
135	0xbe2b3ab5	-0.16721614
136	0xbdcc467c	-0.09974381
137	0xbf2d61aa	-0.6772715
138	0xbe258134	-0.16162568
139	0xbf117fc3	-0.56835574
140	0xbe076de1	-0.13225509
141	0xbdb1661e	-0.086620554
142	0xbe19c2a7	-0.1501566
143	0xbef3eab5	-0.47640005
144	0x39906d84	0.00027547416
145	0x3e589329	0.21149887
146	0xbe3c7b71	-0.18406464
147	0xbb717ccb	-0.0036848064
148	0xbe3257d8	-0.17416322
149	0xbc20c230	-0.009811923
150	0xbe10645a	-0.14100781
151	0xbe8f17d2	-0.2794786
152	0xbe239a6c	-0.15976876
153	0x3f5d0405	0.8633426
154	0x3cde1769	0.027110772
155	0xbe1062ed	-0.14100237
156	0xbd843ab4	-0.06456509
157	0xbe95c34c	-0.29250562
158	0x3eb545d3	0.35404834
159	0xbc88bf64	-0.016692825
160	0x3d6d7410	0.057972014
161	0x3e8cbd60	0.27488232
162	0x3ea0ef6a	0.31432658
163	0xbeac5343	-0.33657274
164	0xbf3fb532	-0.7488586
165	0xbd8d900a	-0.06912239
166	0xbf63e53b	-0.8902165
167	0xbf10ade6	-0.5651535
168	0x3a44c8e8	0.0007506744
169	0xbea908e1	-0.33014587
170	0xbc2c843c	-0.010529574
171	0x3c70ae60	0.014690012
172	0x3e0456eb	0.12923782
173	0xbcf01285	-0.029305706
174	0xbdee7c49	-0.11644799
175	0x3eb53c9a	0.35397798
176	0x3d9e2fa2	0.07723929
177	0xbd3f664b	-0.046728414
178	0xbe05bc71	-0.13060166
179	0xbf2ec4e4	-0.6826918
180	0xbf1383f9	-0.5762325
181	0xbe97510d	-0.29554024
182	0xbe905978	-0.2819326
183	0xbdbad991	-0.09123529
184	0xbde081eb	-0.1096228
185	0x3c21d4c7	0.00987739
186	0xbdd295c1	-0.102824695
187	0xbd01dd60	-0.03170526
188	0xbc8b6c86	-0.017019521
189	0xbe3b3fa3	-0.18285994
190	0x3eeb3b66	0.45943755
191	0xbf168077	-0.5878977
192	0x3e9183a6	0.28420752
193	0xbbc6ad65	-0.0060631507
194	0x3d7a169d	0.061056722
195	0x3e1cefec	0.15325898
196	0x3d4b5c6a	0.04964868
197	0xbce8ac78	-0.028402552
198	0x3e7a648f	0.24452423
199	0x3d1a49d4	0.037668064
200	0xbd1dbe77	-0.03851172
201	0x3be62594	0.0070235226
202	0x3bc85858	0.006114047
203	0x3d9bf232	0.076145545
204	0xbf0f8759	-0.560659
205	0xbe42c3d4	-0.19020015
206	0x3cc3e49b	0.023912719
207	0x3e0f0e9b	0.13970415
208	0xbe5bdbbd	-0.21470542
209	0x3ec4902a	0.38391238
210	0x3dce8761	0.10084415
211	0x3bc77d30	0.0060879216
212	0xbeb83502	-0.35977942
213	0xbbcf60ce	-0.0063286787
214	0x39680f4a	0.0002213094
215	0x3db57ce8	0.088617146
216	0x3bb4b24c	0.0055144187
217	0x3eec9129	0.46204498
218	0xbec8253a	-0.39090902
219	0xbd1ca0a8	-0.03823915
220	0xbe98f534	-0.29874575
221	0x3e06ed27	0.13176404
222	0x3e202ab6	0.15641293
223	0xbef76be9	-0.48324516
224	0xbca37966	-0.019955348
225	0x3cdfd9fc	0.027325623
226	0x3cd77420	0.02630049
227	0xbd1b9214	-0.037981108
228	0x3ebe34b0	0.37149572
229	0xbe25a9d2	-0.16178063
230	0x3e8bde86	0.2731821
231	0x3e0cccce	0.13750002
232	0xba83d201	-0.0010057093
233	0xbd4f1592	-0.05055768
234	0xbce9430c	-0.028474353
235	0xbdfef63a	-0.12449308
236	0x3f198cc4	0.59980416
237	0x3d5e4a41	0.054270033
238	0x3d74641e	0.05966579
239	0x3c74bc46	0.014937466
240	0x3e33374e	0.17501566
241	0x3ee8ca00	0.45466614
242	0x3c743c01	0.014906884
243	0x3d963ecc	0.07336196
244	0x3e253f1b	0.16137354
245	0x3ddcc58f	0.10779869
246	0x3dbb9691	0.09159578
247	0xbf088317	-0.5332503
248	0x3dd28ed0	0.102811456
249	0x3d502351	0.05081493
250	0x399ac760	0.00029521715
251	0xbc3cf99c	-0.011534121
252	0xbc9f62e8	-0.019456342
253	0x3d9d6c08	0.07686621
254	0x3e2260cc	0.15857238
255	0x3e3baf9e	0.18328711

bias f4 [64]
0	0xbd37ccc9	-0.044873033
1	0x403905ff	2.890991
2	0x3ff29090	1.8950367
3	0xbec8c4eb	-0.39212736
4	0x3effead0	0.49983835
5	0x3fcd5160	1.6040459
6	0x3f12b4ac	0.57306933
7	0x3f4f5637	0.8099093
8	0x3f0807ba	0.5313679
9	0x3f6d7860	0.927618
10	0x3f2d3a88	0.67667437
11	0x3e87d859	0.26532248
12	0x40347e66	2.8202147
13	0x4005cf47	2.0907762
14	0x3ee9e35f	0.45681283
15	0x3ed7cab5	0.4214684
16	0x3ffb9824	1.9655805
17	0x3fe0847d	1.7540432
18	0x3f079a2f	0.5296964
19	0xc0407514	-3.007146
20	0x3df13479	0.117775865
21	0x3f383b60	0.719656
22	0x3f232995	0.63735324
23	0xc03ad352	-2.919148
24	0x3f2ed138	0.6828799
25	0x3e78e10d	0.243046
26	0x3eef64a8	0.46756482
27	0x3f60f7e4	0.8787825
28	0x4021540a	2.5207543
29	0x3f6fcef5	0.93675166
30	0x4011a2c9	2.2755606
31	0x3fb6cbb3	1.4280914
32	0x3ee29159	0.44251516
33	0x3fae585d	1.3620716
34	0x401521d2	2.3301892
35	0x3f8dd040	1.1079178
36	0xc03a66e3	-2.9125297
37	0x3f1a1954	0.601949
38	0x3f33cad7	0.70231384
39	0xc03c08bf	-2.9380338
40	0xc02f4ce2	-2.7390676
41	0x3dd445af	0.103648536
42	0x3e7ef6b7	0.24898802
43	0x3f5a7bcf	0.85345167
44	0x3f260e6d	0.6486576
45	0x3fc8d725	1.5690657
46	0x3f5fbff5	0.8740228
47	0xc0128ff7	-2.290037
48	0x3f29195f	0.6605434
49	0x3ffe1e76	1.9853046
50	0xc0442a54	-3.0650835
51	0x3ed64e60	0.4185667
52	0xbfbaa1db	-1.4580644
53	0x3fbd70d3	1.4800056
54	0x3eefe8bc	0.4685725
55	0x3e85af50	0.26110315
56	0x3e494e2d	0.19658728
57	0x3ec7bb4c	0.39010084
58	0x3d2aa175	0.041657884
59	0x3f144caf	0.5792951
60	0xc00c83f2	-2.1955533
61	0x3f6bb9cd	0.92080384
62	0x3f78f661	0.97250944
63	0x3f3f4fd0	0.7473116

weight f4 [64, 64]
0	0x3e8105fb	0.25199875
1	0xbe2311a7	-0.15924703
2	0x3d6c715b	0.05772529
3	0xbd18d9d9	-0.03731713
4	0x3e5b52e3	0.21418338
5	0x3dd079d5	0.101794876
6	0x3e12c8d1	0.14334418
7	0x3dc06c24	0.09395626
8	0x3e421c1a	0.18956032
9	0x3dcff0e9	0.10153372
10	0x3e1d2857	0.1534742
11	0x3e47a1c9	0.1949531
12	0x39e78376	0.000441577
13	0x39e223a9	0.00043132648
14	0x3e5e3deb	0.21703307
15	0x3e429a20	0.19004107
16	0x3d98df3c	0.074644536
17	0x3d479497	0.04872569
18	0x3e42cfbb	0.19024555
19	0xbe58802a	-0.2114264
20	0x3e9168f2	0.2840038
21	0x3dfe3a25	0.12413434
22	0x3e24084e	0.16018793
23	0xbe7d0dce	-0.24712297
24	0x3e653d7d	0.22386737
25	0x3e574462	0.2102218
26	0x3e2eddd2	0.17076805
27	0x3d71c713	0.059027743
28	0xbd33c06e	-0.043884687
29	0x3cab2464	0.020891376
30	0xbe02fe22	-0.12792256
31	0x3e09c9ce	0.13455889
32	0x3c370747	0.011171169
33	0x3bb03fd4	0.0053787027
34	0xbdbc2720	-0.0918715
35	0x3da1a3a7	0.07892542
36	0xbe099029	-0.13433899
37	0x3e1747aa	0.14773431
38	0x3e44dddc	0.19225258
39	0xbe81f84d	-0.2538475
40	0xbe518687	-0.20461474
41	0x3e74e66e	0.23916027
42	0x3e859466	0.26089782
43	0x3c74291e	0.014902381
44	0x3e30c36d	0.17262049
45	0x3dbef1e2	0.09323479
46	0x3dc4bd62	0.096064344
47	0x3c4b6e9f	0.012416511
48	0x3e2b4bc0	0.16728115
49	0x3d1a9d7f	0.037747856
50	0xbe43b2d2	-0.19111183
51	0x3e2c49e3	0.1682506
52	0xbb1b68db	-0.0023713622
53	0x3d9b43e9	0.07581312
54	0x3dab0322	0.08350207
55	0x3e6c1fb7	0.23058973
56	0x3e430421	0.19044544
57	0x3e599c22	0.21250966
58	0x3ea59ab4	0.32344592
59	0x3d92d8a8	0.0717023
60	0xbe0f1731	-0.1397369
61	0x3e2a7a27	0.1664816
62	0x3dff447d	0.12464235
63	0x3e1a23b5	0.15052684
64	0x3e23eab8	0.16007507
65	0x3dc112ba	0.094274
66	0x3d61df3f	0.055144545
67	0xbd122f94	-0.035689905
68	0x3e01f9f6	0.12693009
69	0x3e057593	0.13033132
70	0x3cd6a92e	0.026203718
71	0x3c8bc1b4	0.017060138
72	0x3e30e5ed	0.1727521
73	0x3e1922be	0.1495466
74	0x3e274f15	0.16338761
75	0x3e32e1bc	0.17468923
76	0xbdae2a29	-0.08504135
77	0xbc50200e	-0.012702955
78	0x3d875715	0.066084065
79	0x3dc24dcd	0.094874956
80	0x3cd2e617	0.025744481
81	0x3cf4265e	0.029803451
82	0x3e05b9b5	0.13059123
83	0xbbc03d6c	-0.005866697
84	0x3d9a78ec	0.07542595
85	0x3d18ed11	0.03733546
86	0x3d8bd987	0.068285994
87	0xbd37f0f8	-0.04490754
88	0x3dd61b2a	0.104544
89	0x3db0ef66	0.08639412
90	0x3e32896f	0.1743524
91	0x3c914317	0.017732186
92	0xbc81b310	-0.015832454
93	0xbb95a2bf	-0.00456652
94	0x3c12ab25	0.008951937
95	0xbc8c9fd2	-0.017166052
96	0xbbdd082a	-0.006745358
97	0x3d98dcd4	0.074639946
98	0x3cb4936b	0.02204295
99	0x3cd29e36	0.025710206
100	0xbdc4ee16	-0.09615724
101	0x3e1bd2f9	0.15217198
102	0xba818642	-0.0009881931
103	0xbd886725	-0.06660298
104	0xbd403d81	-0.046933655
105	0x3d3e68d1	0.04648668
106	0x3d1469ae	0.036233597
107	0x3cd014e9	0.025400596
108	0x3e081b5a	0.13291684
109	0x3de8ad3d	0.113611676
110	0xbcc42c4d	-0.023946906
111	0x3e12b410	0.14326501
112	0x3d77c65d	0.06049191
113	0x3ce98f83	0.028510815
114	0xbd1cef01	-0.03831387
115	0x3e0a2e93	0.13494329
116	0x3cac5f8e	0.021041658
117	0x3c5c357b	0.013440485
118	0x3d1c14f8	0.038105935
119	0x3dc0eadb	0.09419795
120	0x3de90cb1	0.11379374
121	0x3db7ff2a	0.089842156
122	0x3e293554	0.1652425
123	0x3d95ec26	0.07320432
124	0x3c7a46fc	0.015275713
125	0x3d9be19d	0.07611392
126	0x3df1552f	0.117838256
127	0x3db778a4	0.08958557
128	0xbce62fb0	-0.028098911
129	0xbe321cb3	-0.1739376
130	0xbe383600	-0.1798935
131	0x3cd9e120	0.026596606
132	0xbcbe4229	-0.023224907
133	0x3c10330f	0.008801236
134	0xbe0563fc	-0.13026422
135	0xbe6c5f4a	-0.23083225
136	0xbdec5345	-0.1153932
137	0x3e31bcb5	0.17357142
138	0x3da5aecc	0.080899805
139	0xbdff2b37	-0.124594145
140	0xbebe3ea1	-0.37157157
141	0xbe7fd4da	-0.2498354
142	0x3dd3afc2	0.103362575
143	0x3dc5fb1b	0.09667035
144	0xbe0eb9ce	-0.13938066
145	0xbe0bcff9	-0.13653554
146	0x3da86121	0.08221651
147	0xbed1e945	-0.40998283
148	0xbddb5428	-0.10709411
149	0xbe5d7c53	-0.21629457
150	0x3cb1f676	0.021723967
151	0xbeb60fc1	-0.35558894
152	0x3d8e4637	0.06946986
153	0xbde6b64d	-0.1126524
154	0xbae331fe	-0.0017333624
155	0xbe4a436e	-0.19752285
156	0xbc8b21ce	-0.016983893
157	0xbe1d4838	-0.1535958
158	0xbdedc67e	-0.11610125
159	0xbe42d7d8	-0.1902765
160	0xbdf460f0	-0.11932552
161	0xbe6acf51	-0.22930647
162	0xbda402fd	-0.080083825
163	0x3cda0fed	0.026618922
164	0xbd01e533	-0.031712722
165	0xbd16acda	-0.036785938
166	0xbd4d6bac	-0.050151512
167	0x3ec5b68f	0.38615844
168	0xbf17c2e2	-0.5928174
169	0x3d935907	0.07194715
170	0xbb92c0bb	-0.0044785417
171	0xbd75a1d7	-0.059968796
172	0xbe4a3de5	-0.19750173
173	0xbe039c7a	-0.1285266
174	0x3db7d111	0.08975423
175	0xbe157ac4	-0.14597613
176	0xbe30fff7	-0.17285143
177	0xbeaef874	-0.3417393
178	0x3eb74898	0.35797572
179	0xbe328842	-0.1743479
180	0xbdc3771c	-0.09544203
181	0xbe53dafe	-0.20689008
182	0xbdf5c991	-0.12001336
183	0xbd000983	-0.03125907
184	0xbe37b7d5	-0.1794122
185	0x3cea3ec6	0.028594386
186	0x3da5c8e6	0.08094959
187	0xbd39c2cd	-0.045351792
188	0xbb0ec13c	-0.0021782657
189	0xbe1dcaad	-0.15409346
190	0x3d32355d	0.043507922
191	0xbc96232a	-0.018327314
192	0xbe20c359	-0.15699519
193	0x3cc27c86	0.023741018
194	0x3d5fb20e	0.054613166
195	0xbde21277	-0.11038678
196	0xbdf5d0f2	-0.12002744
197	0x3e7dd40e	0.24787924
198	0x3d66b251	0.0563224
199	0xbe04a1fc	-0.12952417
200	0x3e8c0f93	0.27355632
201	0x3e63672c	0.22207326
202	0x3e1fdb38	0.15610969
203	0xbdb058ac	-0.08610663
204	0xbe15dd70	-0.14635253
205	0x3ce3f406	0.02782632
206	0x3cf9402f	0.030426113
207	0xbd390d23	-0.045178544
208	0xbd911caf	-0.07085549
209	0x3e57c36f	0.21070646
210	0x3dcc73bd	0.09983013
211	0x3e6ddb60	0.23228216
212	0xbe1fc07f	-0.15600775
213	0x3e534335	0.20631106
214	0x3e4c51dd	0.19953103
215	0x3edf562d	0.43620434
216	0x3d41e4f4	0.047337487
217	0x3dcef436	0.10105173
218	0x3c3d4991	0.011553184
219	0x3cce1a90	0.02515915
220	0xbdb06db5	-0.08614675
221	0x3e24d4c6	0.16096792
222	0x3e948d88	0.2901423
223	0x3e0beab2	0.13663748
224	0xbd3c87de	-0.04602801
225	0xbd582b66	-0.052775763
226	0xbdb0857b	-0.086192094
227	0x3e85565e	0.26042455
228	0xbe05baed	-0.13059588
229	0xbc6e1690	-0.0145317465
230	0x3dc7083b	0.09718367
231	0xbee83259	-0.45350912
232	0xbe9ba39c	-0.30398262
233	0xbe3a11a8	-0.18170798
234	0xbdd82b70	-0.1055516
235	0x3d1e0153	0.03857548
236	0x3dd09b34	0.10185853
237	0x3e3816e5	0.17977484
238	0x3e572b82	0.2101269
239	0xbe179d5e	-0.14806125
240	0xbd90e1ad	-0.07074294
241	0xbdad3f84	-0.0845938
242	0x3edf968e	0.43669552
243	0x3e2dfece	0.16991732
244	0xbdcbd403	-0.099525474
245	0x3d1622a4	0.03665413
246	0x3cc45adf	0.023969112
247	0x3df7f2a8	0.1210683
248	0xbd8decac	-0.06929907
249	0x3cef7e23	0.029234951
250	0x3d473982	0.048638828
251	0xbdbee1cb	-0.0932041
252	0x3dfc5d94	0.12322536
253	0x3e9883cd	0.29788056
254	0x3e47a259	0.19495524
255	0x3e4eaf41	0.20184042

bias f4 [64]
0	0x3f806625	1.0031172
1	0xbf9479b2	-1.1599638
2	0xbe3317ed	-0.17489596
3	0x3dad54f5	0.0846347
4	0xbe92bc1a	-0.28659135
5	0x3f1f1907	0.62147564
6	0x3f745218	0.95437765
7	0x3f4eefc8	0.8083463
8	0xbee1fe6d	-0.44139424
9	0xbfab6ef2	-1.3393233
10	0xbe8a5b2f	-0.27022693
11	0xbec0ec58	-0.37680316
12	0xbe5a641d	-0.21327253
13	0xbf8826d2	-1.0636847
14	0x3f47c377	0.7803263
15	0xbe7f2cfe	-0.24919507
16	0xbdff809c	-0.12475702
17	0x3f3f8b73	0.7482216
18	0xbea3b677	-0.31975147
19	0x3f34e8b4	0.70667577
20	0xbf1950c4	-0.59888864
21	0x3f1e2b13	0.61784476
22	0x3f6b8d82	0.920128
23	0xbec255bb	-0.37956032
24	0xbe80dd58	-0.25168872
25	0xbeb5f337	-0.3553712
26	0xbe96117d	-0.29310217
27	0x3f0699ee	0.5257863
28	0x3f83dea0	1.0302315
29	0x3f291f63	0.6606352
30	0x3f4a4397	0.79009384
31	0xbe321e0d	-0.17394276
32	0xbed7cb3f	-0.42147252
33	0x3f789846	0.9710735
34	0x3f651b80	0.89495087
35	0xbe36446a	-0.17799535
36	0xbf9a27c0	-1.2043381
37	0x3f523215	0.8210767
38	0xbf9d03ef	-1.2266825
39	0xbeaa2a2e	-0.33235306
40	0x3f7f0398	0.9961486
41	0xbecfe05e	-0.40600866
42	0xbe979c4d	-0.29611436
43	0x3f3e492e	0.74330413
44	0x3f80b286	1.0054481
45	0xbe2e2322	-0.1700559
46	0x3f0f0eea	0.5588213
47	0xbfa9ff77	-1.3281087
48	0xbec979df	-0.39350793
49	0x3edc7860	0.4306059
50	0xbfa139bc	-1.2595744
51	0xbe8511c5	-0.2599012
52	0xbe7438c7	-0.23849784
53	0xbfa97a1f	-1.3240393
54	0xbfa613ed	-1.2974831
55	0xbf975f42	-1.1825945
56	0x3f3cfa56	0.7381948
57	0xbec69de9	-0.3879235
58	0xbec93fdd	-0.39306536
59	0x3f7f93e9	0.9983507
60	0xbed1ec2e	-0.41000503
61	0xbf8a2413	-1.0792259
62	0xbe5c327d	-0.21503635
63	0xbfb32a75	-1.3997332

weight f4 [1, 64]
0	0x3e1e8d46	0.15483579
1	0xbe9376cf	-0.2880158
2	0xbe8fb131	-0.28064874
3	0xbe9dac27	-0.30795404
4	0xbd8928e8	-0.066972554
5	0x3e930743	0.28716478
6	0x3e282b11	0.16422679
7	0x3e433b30	0.19065547
8	0xbd704bb4	-0.058665946
9	0xbf5e8f4d	-0.8693741
10	0xbe855a9c	-0.26045692
11	0xbd58bb93	-0.05291326
12	0xbd9f44c1	-0.07776786
13	0xbebe95f3	-0.37223777
14	0x3e43693b	0.19083111
15	0xbe133463	-0.14375453
16	0xbe165243	-0.14679818
17	0x3e3da95c	0.18521637
18	0xbd861504	-0.06546977
19	0x3e4bded4	0.19909221
20	0xbd8aed9b	-0.06783601
21	0x3e65f11e	0.2245526
22	0x3e137d41	0.1440325
23	0xbd7c0ec6	-0.061537527
24	0xbda3c06d	-0.07995687
25	0xbd67cac4	-0.056589857
26	0xbe20bbea	-0.15696684
27	0x3e9c8385	0.3056909
28	0x3e161276	0.1465548
29	0x3e5a3747	0.21310149
30	0x3e3130b8	0.17303741
31	0xbeab66c6	-0.33476847
32	0xbd7b8a39	-0.061411116
33	0x3e15fa2e	0.14646217
34	0x3e369027	0.17828427
35	0xbe5f2ef4	-0.21795255
36	0xbec5ea87	-0.38655493
37	0x3e3996c1	0.18123914
38	0xbea3cd29	-0.31992462
39	0xbd867161	-0.06564594
40	0x3e0e5620	0.13900042
41	0xbd6f7132	-0.05845756
42	0xbd9a4180	-0.075320244
43	0x3e703751	0.23458602
44	0x3e0dc68a	0.13845268
45	0xbe3a3f4a	-0.18188205
46	0x3e8678cc	0.26264036
47	0xbec2d63a	-0.38054067
48	0xbd736ab2	-0.059427924
49	0x3eb8c714	0.36089385
50	0xbf65c702	-0.89756787
51	0xbe5ca281	-0.21546365
52	0xbdb05751	-0.08610404
53	0xbefb1727	-0.490411
54	0xbe987728	-0.2977841
55	0xbebc9aa6	-0.36836737
56	0x3e725558	0.23665369
57	0xbd3a8102	-0.045533188
58	0xbd8c9061	-0.068634756
59	0x3e1ca6b4	0.15297967
60	0xbd63c3ea	-0.05560676
61	0xbeb7291e	-0.35773557
62	0xbe86d05c	-0.2633084
63	0xbe86061a	-0.2617653

weight f4 [64]
0	0x3f800000	1.0
1	0x3f800000	1.0
2	0x3f800000	1.0
3	0x3f800000	1.0
4	0x3f800000	1.0
5	0x3f800000	1.0
6	0x3f800000	1.0
7	0x3f800000	1.0
8	0x3f800000	1.0
9	0x3f800000	1.0
10	0x3f800000	1.0
11	0x3f800000	1.0
12	0x3f800000	1.0
13	0x3f800000	1.0
14	0x3f800000	1.0
15	0x3f800000	1.0
16	0x3f800000	1.0
17	0x3f800000	1.0
18	0x3f800000	1.0
19	0x3f800000	1.0
20	0x3f800000	1.0
21	0x3f800000	1.0
22	0x3f800000	1.0
23	0x3f800000	1.0
24	0x3f800000	1.0
25	0x3f800000	1.0
26	0x3f800000	1.0
27	0x3f800000	1.0
28	0x3f800000	1.0
29	0x3f800000	1.0
30	0x3f800000	1.0
31	0x3f800000	1.0
32	0x3f800000	1.0
33	0x3f800000	1.0
34	0x3f800000	1.0
35	0x3f800000	1.0
36	0x3f800000	1.0
37	0x3f800000	1.0
38	0x3f800000	1.0
39	0x3f800000	1.0
40	0x3f800000	1.0
41	0x3f800000	1.0
42	0x3f800000	1.0
43	0x3f800000	1.0
44	0x3f800000	1.0
45	0x3f800000	1.0
46	0x3f800000	1.0
47	0x3f800000	1.0
48	0x3f800000	1.0
49	0x3f800000	1.0
50	0x3f800000	1.0
51	0x3f800000	1.0
52	0x3f800000	1.0
53	0x3f800000	1.0
54	0x3f800000	1.0
55	0x3f800000	1.0
56	0x3f800000	1.0
57	0x3f800000	1.0
58	0x3f800000	1.0
59	0x3f800000	1.0
60	0x3f800000	1.0
61	0x3f800000	1.0
62	0x3f800000	1.0
63	0x3f800000	1.0

bias f4 [64]
0	0x00000000	0.0
1	0x00000000	0.0
2	0x00000000	0.0
3	0x00000000	0.0
4	0x00000000	0.0
5	0x00000000	0.0
6	0x00000000	0.0
7	0x00000000	0.0
8	0x00000000	0.0
9	0x00000000	0.0
10	0x00000000	0.0
11	0x00000000	0.0
12	0x00000000	0.0
13	0x00000000	0.0
14	0x00000000	0.0
15	0x00000000	0.0
16	0x00000000	0.0
17	0x00000000	0.0
18	0x00000000	0.0
19	0x00000000	0.0
20	0x00000000	0.0
21	0x00000000	0.0
22	0x00000000	0.0
23	0x00000000	0.0
24	0x00000000	0.0
25	0x00000000	0.0
26	0x00000000	0.0
27	0x00000000	0.0
28	0x00000000	0.0
29	0x00000000	0.0
30	0x00000000	0.0
31	0x00000000	0.0
32	0x00000000	0.0
33	0x00000000	0.0
34	0x00000000	0.0
35	0x00000000	0.0
36	0x00000000	0.0
37	0x00000000	0.0
38	0x00000000	0.0
39	0x00000000	0.0
40	0x00000000	0.0
41	0x00000000	0.0
42	0x00000000	0.0
43	0x00000000	0.0
44	0x00000000	0.0
45	0x00000000	0.0
46	0x00000000	0.0
47	0x00000000	0.0
48	0x00000000	0.0
49	0x00000000	0.0
50	0x00000000	0.0
51	0x00000000	0.0
52	0x00000000	0.0
53	0x00000000	0.0
54	0x00000000	0.0
55	0x00000000	0.0
56	0x00000000	0.0
57	0x00000000	0.0
58	0x00000000	0.0
59	0x00000000	0.0
60	0x00000000	0.0
61	0x00000000	0.0
62	0x00000000	0.0
63	0x00000000	0.0

running_mean f4 [64]
0	0x00000000	0.0
1	0x00000000	0.0
2	0x00000000	0.0
3	0x00000000	0.0
4	0x00000000	0.0
5	0x00000000	0.0
6	0x00000000	0.0
7	0x00000000	0.0
8	0x00000000	0.0
9	0x00000000	0.0
10	0x00000000	0.0
11	0x00000000	0.0
12	0x00000000	0.0
13	0x00000000	0.0
14	0x00000000	0.0
15	0x00000000	0.0
16	0x00000000	0.0
17	0x00000000	0.0
18	0x00000000	0.0
19	0x00000000	0.0
20	0x00000000	0.0
21	0x00000000	0.0
22	0x00000000	0.0
23	0x00000000	0.0
24	0x00000000	0.0
25	0x00000000	0.0
26	0x00000000	0.0
27	0x00000000	0.0
28	0x00000000	0.0
29	0x00000000	0.0
30	0x00000000	0.0
31	0x00000000	0.0
32	0x00000000	0.0
33	0x00000000	0.0
34	0x00000000	0.0
35	0x00000000	0.0
36	0x00000000	0.0
37	0x00000000	0.0
38	0x00000000	0.0
39	0x00000000	0.0
40	0x00000000	0.0
41	0x00000000	0.0
42	0x00000000	0.0
43	0x00000000	0.0
44	0x00000000	0.0
45	0x00000000	0.0
46	0x00000000	0.0
47	0x00000000	0.0
48	0x00000000	0.0
49	0x00000000	0.0
50	0x00000000	0.0
51	0x00000000	0.0
52	0x00000000	0.0
53	0x00000000	0.0
54	0x00000000	0.0
55	0x00000000	0.0
56	0x00000000	0.0
57	0x00000000	0.0
58	0x00000000	0.0
59	0x00000000	0.0
60	0x00000000	0.0
61	0x00000000	0.0
62	0x00000000	0.0
63	0x00000000	0.0

running_var f4 [64]
0	0x3f800000	1.0
1	0x3f800000	1.0
2	0x3f800000	1.0
3	0x3f800000	1.0
4	0x3f800000	1.0
5	0x3f800000	1.0
6	0x3f800000	1.0
7	0x3f800000	1.0
8	0x3f800000	1.0
9	0x3f800000	1.0
10	0x3f800000	1.0
11	0x3f800000	1.0
12	0x3f800000	1.0
13	0x3f800000	1.0
14	0x3f800000	1.0
15	0x3f800000	1.0
16	0x3f800000	1.0
17	0x3f800000	1.0
18	0x3f800000	1.0
19	0x3f800000	1.0
20	0x3f800000	1.0
21	0x3f800000	1.0
22	0x3f800000	1.0
23	0x3f800000	1.0
24	0x3f800000	1.0
25	0x3f800000	1.0
26	0x3f800000	1.0
27	0x3f800000	1.0
28	0x3f800000	1.0
29	0x3f800000	1.0
30	0x3f800000	1.0
31	0x3f800000	1.0
32	0x3f800000	1.0
33	0x3f800000	1.0
34	0x3f800000	1.0
35	0x3f800000	1.0
36	0x3f800000	1.0
37	0x3f800000	1.0
38	0x3f800000	1.0
39	0x3f800000	1.0
40	0x3f800000	1.0
41	0x3f800000	1.0
42	0x3f800000	1.0
43	0x3f800000	1.0
44	0x3f800000	1.0
45	0x3f800000	1.0
46	0x3f800000	1.0
47	0x3f800000	1.0
48	0x3f800000	1.0
49	0x3f800000	1.0
50	0x3f800000	1.0
51	0x3f800000	1.0
52	0x3f800000	1.0
53	0x3f800000	1.0
54	0x3f800000	1.0
55	0x3f800000	1.0
56	0x3f800000	1.0
57	0x3f800000	1.0
58	0x3f800000	1.0
59	0x3f800000	1.0
60	0x3f800000	1.0
61	0x3f800000	1.0
62	0x3f800000	1.0
63	0x3f800000	1.0
