example/mlp_model.pt (torch, 21991 bytes, 5 tensors)

weight f4 [64, 4]
000000 cb e3 7a 3e c2 96 af be 1f be 20 3b fa 3f a2 3b
       0.24500959 -0.34294707 0.0024527384 0.0049514743
000010 05 7f a8 be d8 01 91 3e 68 e9 01 bf a2 3f 1a 3e
       -0.32909408 0.2832172 -0.50746775 0.15063336
000020 80 95 0a 3f c9 da 5c be e5 1b 9b be 19 e8 cd be
       0.5413437 -0.21567835 -0.3029472 -0.4021614
000030 08 08 cd be 82 c8 9a 3e d8 2d a0 3d 28 00 be bd
       -0.4004519 0.302311 0.07821244 -0.092773736
000040 da 4f d1 be 99 44 96 be cf d9 a3 3e 07 05 d8 3d
       -0.40881234 -0.2934921 0.32002112 0.10547834
000050 f0 4e ac be f9 31 56 be 97 d8 1a be d3 e5 4e be
       -0.33653975 -0.209175 -0.15121685 -0.20204858
000060 9c d5 5a 3e d2 a2 18 bf 24 52 92 3d 8c ab 96 3d
       0.21370548 -0.59623444 0.07144573 0.07356939
000070 ed 80 20 3e 64 18 00 bf 54 46 95 be 45 c0 98 3d
       0.15674181 -0.5003722 -0.2915522 0.074585475
000080 97 18 0e bf 3f e3 4c 3e 8e d1 99 3e 04 31 29 3c
       -0.5550627 0.20008563 0.3004269 0.010326628
000090 17 0e ea bc bf 7f 88 3e 83 c6 b4 be 9d e9 2a ba
       -0.028571172 0.26659963 -0.35307702 -0.00065197964
0000a0 8a c2 81 3e b4 43 7c 3d e4 b0 0d 3e d1 04 1a bf
       0.25343734 0.061588004 0.1383701 -0.601636
0000b0 c4 ec ff be f4 6a f2 3d 53 8b b2 3c a6 98 ac be
       -0.49985325 0.11836806 0.02179495 -0.33710212
0000c0 40 84 df 3c 94 c1 c3 3d 00 61 80 bc 76 77 78 bc
       0.027284741 0.095584065 -0.015671253 -0.0151652
0000d0 b7 de 7b be 52 5f b3 be b9 e9 fb 3d 6c 05 70 38
       -0.24596678 -0.3503366 0.123004384 5.722551e-05
0000e0 b2 e2 3f be 51 5e 58 3e e6 e5 2d bd 20 ea 6f be
       -0.18738821 0.21129729 -0.042455576 -0.23429155
0000f0 1c d7 e3 3d 95 e3 bb bd 1c b7 ed 3b f4 da a7 3d
       0.11125013 -0.09174267 0.0072544944 0.08196059
000100 b7 eb 33 3e 59 f9 b2 be 3c a0 24 bd 38 96 c2 3d
       0.17570387 -0.34955862 -0.040191874 0.09501308
000110 8f 02 f2 3d 71 67 20 3e b9 01 fe 3d b8 fd c9 be
       0.11816894 0.1566446 0.12402672 -0.39451385
000120 98 f6 d1 3e 71 4a ca be b4 3f 06 3e d7 73 5f bd
       0.4100845 -0.3950992 0.13110238 -0.054553833
000130 8e 30 04 3e 6c 0f 7f 3d 59 42 c1 3d bb 97 43 bd
       0.12909147 0.062270567 0.09436483 -0.047752123
000140 45 b7 03 bf da aa cb 3e 86 a0 f6 be 71 a4 a1 3d
       -0.5145152 0.39778787 -0.48169345 0.07892693
000150 4b 6b df be df ff f1 3d 80 6e a2 bd e9 61 9a 3e
       -0.43636546 0.11816382 -0.079312325 0.30152825
000160 69 44 fd 3d 17 85 f7 be ce fa aa be 24 61 41 3e
       0.12366564 -0.48343727 -0.33394474 0.18884712
000170 bc 3b c5 be 4f 57 3e 3e f8 35 ae bd eb 88 df be
       -0.38522136 0.18587993 -0.085063875 -0.43659148
000180 eb 07 e9 be 9e e4 0d be bc d7 8f 3d 8e 01 fe be
       -0.45513853 -0.13856742 0.0702357 -0.4961056
000190 41 a4 8d 3e b8 70 a0 be e3 d0 09 3e 3f 2e c8 be
       0.27664378 -0.31335998 0.1345859 -0.39097783
0001a0 6c ba 96 be 69 48 a6 bb ed c0 a0 3d cc 46 38 3e
       -0.29439104 -0.00507455 0.07849298 0.17995757
0001b0 60 50 88 3e 4b c8 3d bd 42 1c 17 3d b7 b1 be be
       0.2662382 -0.046333592 0.036892183 -0.3724496
0001c0 80 ec 29 3e 64 3e fa be c1 51 88 be c8 95 3a bd
       0.16594124 -0.48875725 -0.26624873 -0.045553
0001d0 ce 0a 5e be 6d 04 dc be 64 9d e3 3d 1a 52 a3 3c
       -0.21683809 -0.42972127 0.11114004 0.01993661
0001e0 93 28 f4 bd 94 21 b9 be 0d 6c ca be 80 7b 7f 3e
       -0.119218014 -0.3615843 -0.3953556 0.24949455
0001f0 c0 70 93 bd ed 17 e5 3d df 62 73 3e 22 e6 8c be
       -0.0719924 0.11186204 0.23768185 -0.27519327
000200 32 e0 b1 be 52 e4 32 be 3f 95 fc bd 87 ae b2 be
       -0.3474136 -0.1746991 -0.12333154 -0.3489878
000210 1b 30 ad 3e b4 04 1f be e2 d7 92 be 84 cc 0c 3e
       0.33825764 -0.15529138 -0.2868033 0.13749892
000220 06 5b ad be cb a6 94 3e 42 6d 08 bf 4f 52 22 3e
       -0.33858508 0.29033503 -0.53291714 0.1585171
000230 de 75 90 be b8 20 d5 be ec d1 8f 3e 06 e6 b9 bd
       -0.28214926 -0.41626525 0.28089845 -0.090770766
000240 2a 63 e4 be 3a 15 1c 3e 34 2e 9b be be 0c a7 3e
       -0.44606906 0.15242472 -0.30308688 0.3262691
000250 9a e5 b6 be 72 09 92 be c6 1b cc 3d e7 7c 68 be
       -0.35722047 -0.2852283 0.09966235 -0.22703896
000260 8b a9 93 bd 4e f5 c1 be 8a 9b d4 3e 67 75 2e 3e
       -0.07210072 -0.37882465 0.41524917 0.17036973
000270 a1 81 72 be 0a bb 49 be 1d 7c ff be 9e 9d 0a 3e
       -0.23682262 -0.19700256 -0.49899378 0.13536689
000280 7a 02 64 be 7a e5 71 3e d4 87 f1 3c 72 27 68 bc
       -0.2226657 0.23622695 0.029483713 -0.014169561
000290 f0 79 5c 3e 3c 50 23 bf 5e 17 35 3e 0f 8d 97 3e
       0.2153089 -0.637943 0.17684695 0.29599807
0002a0 68 e0 01 3e 23 d7 8b 3d 73 a3 41 bd cf ab bf be
       0.1268326 0.068281434 -0.047275018 -0.37435767
0002b0 b3 20 de 3e d4 a8 83 3d be ec be be 7c 95 e2 be
       0.43384323 0.06428686 -0.37289995 -0.44254673
0002c0 44 ab ab be a1 80 92 bd 86 3d 18 3d c2 3e d0 be
       -0.33529103 -0.0715344 0.03716805 -0.4067288
0002d0 13 b5 92 3e 4a 93 26 bd 9e 84 31 be 2e b1 0e 3d
       0.28653774 -0.04066781 -0.17335746 0.03483694
0002e0 b3 71 a8 be 50 95 d4 ba e3 4f 28 bd 6d b3 47 be
       -0.32899246 -0.0016218815 -0.04109181 -0.19502039
0002f0 ba 73 00 3d 58 b1 93 be 2e 3b a1 be 3c c1 92 3e
       0.031360365 -0.2884624 -0.31490463 0.2866305
000300 3f f7 e4 3e 7a 05 b2 be 4d e8 02 bf 88 36 68 3e
       0.44719884 -0.34769803 -0.5113571 0.22677052
000310 6c 8b 06 3e d1 63 f6 bd 1c 3b 64 3d 02 99 b1 39
       0.13139123 -0.12030757 0.055720434 0.0003387407
000320 ff 14 40 3e eb 47 03 bf 39 1d 8c 3e 24 6e 47 bc
       0.1875801 -0.51281613 0.27366045 -0.012172256
000330 f2 a5 2e 3e 02 52 71 3d a1 f1 25 bf e1 47 7a 3e
       0.1705549 0.0589161 -0.6482182 0.24441482
000340 a3 ed d6 bd 86 7d a4 bd af e8 a3 3e c2 3a c9 be
       -0.10494544 -0.08031754 0.3201346 -0.3930264
000350 1e 21 b2 be 8c 39 8d be 96 9d ba bd 81 e4 06 3e
       -0.3479089 -0.27582967 -0.091120884 0.13173105
000360 e2 8a c8 be c7 14 ec 3c 91 53 72 bd a1 51 c9 be
       -0.3916846 0.028818501 -0.059161726 -0.3932009
000370 92 33 8e 3d 1a 75 08 3e 3d 94 fd 3d 04 88 1c bf
       0.0694343 0.1332592 0.1238179 -0.61145043
000380 8b 79 80 3e 89 0b ea be a6 06 85 bc 93 93 50 3e
       0.2509273 -0.45711926 -0.016238522 0.20368795
000390 f9 c2 f3 be c8 c5 a7 be f7 49 b6 3e 0e 21 1d be
       -0.4760969 -0.32768083 0.35603306 -0.1534464
0003a0 33 98 1b 3c f3 bd 92 3b fb f5 3c 3c c9 53 85 3b
       0.009496736 0.00447821 0.011533256 0.004068826
0003b0 3f ec dc be f8 a8 a0 be fc e0 ce bd 02 7e 0b 3e
       -0.4314899 -0.31378913 -0.10101506 0.13622287
0003c0 d8 f8 da be 47 81 8c 3e 29 bb f3 be 39 11 91 be
       -0.42767978 0.2744238 -0.4760373 -0.28333452
0003d0 4d 20 ec ba 68 68 2e bd 26 a7 89 3e ee 75 5a be
       -0.0018014997 -0.04258004 0.26885337 -0.21334049
0003e0 d2 68 90 bd dc 87 18 3e 35 a1 96 be 0c e2 1f 3e
       -0.07051243 0.14895576 -0.29419866 0.15613574
0003f0 c6 1c 23 3e 6e ee c2 bd 51 63 a4 bb f2 27 50 3d
       0.15928945 -0.09518133 -0.0050167223 0.050819345

bias f4 [64]
000000 28 1f ec 3f 64 1b f9 bf fb 05 77 3f 23 07 8d bf
       1.8447008 -1.9461484 0.964935 -1.1017803
000010 38 aa a6 3e b2 dd 46 40 3e 23 59 bf 61 74 63 40
       0.32551742 3.1072812 -0.848194 3.5539782
000020 af cb ab bf 59 86 e1 bf 5c ef 2a bd 47 55 64 40
       -1.3421534 -1.7619125 -0.041732177 3.567705
000030 28 b5 1f c0 8b 05 9c 40 cb 19 d5 bf a1 3a 3e c0
       -2.495432 4.8756766 -1.6648496 -2.9723284
000040 9b aa e7 3f 3f 89 34 c0 1d a4 ab bf 40 de 0a c0
       1.809894 -2.8208768 -1.3409458 -2.169815
000050 48 79 a4 bf 32 c8 37 bf f6 c8 e9 3f f6 83 1d 40
       -1.2849512 -0.7178985 1.8264453 2.4611793
000060 32 dd 4c 40 3a 78 9e bd 5c 09 0f c0 81 dd 83 bf
       3.2010007 -0.07737775 -2.2349463 -1.0301973
000070 05 d0 89 40 cb 76 85 40 59 95 d4 3f 71 d0 d2 bf
       4.306643 4.170751 1.6608077 -1.6469861
000080 f8 c8 8b 40 ff bf e1 bf e1 b8 d5 bf c4 02 9b 40
       4.3682823 -1.7636718 -1.6697046 4.8440876
000090 fc f9 88 be 0d bd 73 40 0f 77 f1 bf d5 f9 19 40
       -0.26753223 3.8084137 -1.8864459 2.4058735
0000a0 bd 43 0f c0 f4 91 00 3f 59 45 51 3f 8d f6 5e bf
       -2.2385094 0.50222707 0.8174644 -0.87094957
0000b0 c0 4a 87 40 2a ed 06 c0 d2 2d 86 40 ad 6b f1 3f
       4.2278748 -2.1082253 4.1930933 1.8860985
0000c0 cf 50 f9 be a4 cb 1b c0 26 b7 54 3e 0b 9d b1 bf
       -0.48694465 -2.4343042 0.2077299 -1.3876051
0000d0 6b eb e2 3f 1b 44 d5 3f 7e 53 a6 40 be 37 01 40
       1.7728094 1.6661409 5.197692 2.0190272
0000e0 46 05 2d bf 3e d6 91 40 1b a9 0f c0 9b 41 87 40
       -0.6758617 4.5574026 -2.2446964 4.2267585
0000f0 e8 97 f5 3f b8 24 ef be d4 a2 f9 bf 7a 52 f9 bf
       1.9186983 -0.46707702 -1.9502816 -1.9478295

weight f4 [64, 64]
000000 a4 3f 1b bd be 80 fe bd 50 7a 1b be 4f 6d fd bb
       -0.03790249 -0.124268994 -0.15183377 -0.007733978
000010 f3 50 38 bd 92 7b 7c 3c 24 e6 2c 3d cb 56 87 3d
       -0.044999074 0.015410321 0.042211667 0.06608351
000020 ac 85 96 bb 8a 97 50 bc 0b 89 1b bd 28 b3 47 3d
       -0.0045935716 -0.012731442 -0.03797249 0.04875484
000030 21 84 6b bc 8e bc 99 3c c9 68 89 bb 82 fa fe 3a
       -0.014374764 0.018766668 -0.0041933996 0.0019453319
000040 0d c5 60 bd 68 c4 3b bc 4a d4 c9 b9 57 78 02 bc
       -0.054875422 -0.011460401 -0.00038495875 -0.007963262
000050 f6 52 56 bd ad bf fc bb 78 23 07 3d 28 a5 11 3d
       -0.05232521 -0.007713279 0.03299281 0.035557896
000060 f3 16 57 3d e9 f7 a0 bd 99 d8 39 bd 8f 2b 92 bc
       0.05251212 -0.07859785 -0.04537258 -0.017843036
000070 42 6a 57 3d 7a 45 fb 3c c1 71 52 3d 1a eb f2 bb
       0.05259157 0.030672777 0.051378015 -0.00741328
000080 bd f7 b4 3c e1 b2 76 3b dd 45 f1 bd 40 cc 25 3d
       0.022090787 0.0037643241 -0.117809035 0.04047799
000090 65 79 60 be a1 27 50 3d 03 ad 9f 3d 6c e9 59 3d
       -0.21921308 0.050819043 0.07796671 0.053201124
0000a0 09 c1 02 3e c4 d7 25 3b 94 7a 0e bd 07 6f b2 bb
       0.1276895 0.0025305608 -0.03478487 -0.0054453644
0000b0 95 5d 9d 3d 73 37 02 3e c2 de 98 3d ce 5e dd 3b
       0.07683865 0.12716465 0.07464363 0.0067556864
0000c0 56 76 4f bc d5 c9 97 bb 81 2d 0c bc 33 2e 49 3b
       -0.012662491 -0.0046322145 -0.008555771 0.0030697703
0000d0 45 f0 6c bc 1c 86 89 3d b6 27 5f 3d 88 8d 71 bd
       -0.014461582 0.067150325 0.05448123 -0.058972865
0000e0 7c 0c 8c bc d2 81 74 3d 17 11 e3 bd 85 06 92 3d
       -0.017095797 0.05969412 -0.11087244 0.0713015
0000f0 5e 72 6b 3d 22 10 05 3b 5c 13 b9 bc 93 31 bd bb
       0.057482116 0.0020303805 -0.02259224 -0.005773732
000100 a3 94 bf bb 53 7d 61 be a7 56 2c 3d ff 3d e8 3c
       -0.0058465763 -0.22020464 0.042074826 0.028349875
000110 f7 ce ed bc f7 70 dd bc 0e 95 11 be 49 c7 b3 bd
       -0.029029353 -0.027031405 -0.14217016 -0.08778245
000120 f1 67 d8 3a c2 01 93 bb 8d 60 0a 3d f3 40 88 bc
       0.0016510469 -0.0044862935 0.033783484 -0.016632533
000130 f6 99 2b 3d 39 44 53 bd 62 4b bc be 2e d9 8d bb
       0.041894875 -0.051578734 -0.36776263 -0.0043288684
000140 63 3c 77 be 05 13 7f 3c f6 b1 13 3c c9 79 a3 ba
       -0.2414413 0.015568499 0.009014597 -0.0012472208
000150 9d 33 a0 bd 13 25 be 3b 05 28 93 bd 40 99 51 bd
       -0.078223445 0.0058027594 -0.071853675 -0.05117154
000160 06 b2 10 bc 69 e4 a0 be 74 67 d8 bc ae 55 6d 3d
       -0.008831507 -0.31424263 -0.026416518 0.05794304
000170 0c 66 cb bd 4f a4 29 be 04 e5 2b bd c7 2c ff bb
       -0.09931573 -0.16566585 -0.041966453 -0.0077873203
000180 c3 62 e6 bc 6c 66 e4 ba 9e 28 65 be 8d df e8 bd
       -0.028123265 -0.0017425544 -0.22378775 -0.11370764
000190 e8 c2 b1 3d 3d b0 0f bd 13 44 3f 3d 10 bb 8e bd
       0.086797535 -0.035080183 0.04669578 -0.06969273
0001a0 e2 34 3d 3c ad 2c c4 bb 5f 4b f4 bd b2 d8 f6 3c
       0.011548253 -0.005986771 -0.119284384 0.030132625
0001b0 d3 ff 18 bd 15 83 de 3b e3 88 9b bd 5a b9 46 38
       -0.037353348 0.0067905285 -0.075944684 4.73795e-05
0001c0 2b a4 6f 3c 84 22 69 3c a5 2f 8c bc 97 d6 b1 bd
       0.014626543 0.014229421 -0.017112562 -0.08683508
0001d0 bd fb 5e 3d a9 eb bd bd 96 13 11 bd 26 24 07 bf
       0.054439295 -0.09273464 -0.03541907 -0.52789533
0001e0 af 67 06 bd 1b ac 94 bd 4a c2 9b 3d 8a 99 b0 bd
       -0.032813724 -0.07259389 0.07605417 -0.08623035
0001f0 3e d5 db bc 56 21 21 bc 57 19 12 3d 59 fc ab bc
       -0.02683508 -0.009834608 0.035668697 -0.020994352
000200 56 1e 42 3c 65 c1 27 be eb fb 30 bc 82 e1 f6 3c
       0.011848053 -0.16382368 -0.010802249 0.030136827
000210 e1 63 9c bc e8 6b f3 3e 64 f7 16 be 1b 1f 10 3f
       -0.019090595 0.47543263 -0.1474281 0.56297463
000220 1c 20 a3 be c0 a5 9c 3e d5 66 ec bc f6 ca f1 3e
       -0.31860435 0.30595207 -0.028857628 0.4722516
000230 a3 d7 a9 be 84 da 13 3f bf 55 e4 3d 5f 6e 25 be
       -0.3317233 0.57755303 0.11149167 -0.16155384
000240 15 c1 f2 3d b6 44 1e be e0 b1 0e bb 5e b2 a1 bc
       0.11853234 -0.15455899 -0.0021773502 -0.019738372
000250 8e cf 81 be 4a e3 42 be 13 78 30 3f ae 5b 07 3f
       -0.25353664 -0.19032016 0.6893322 0.5287427
000260 c9 fe 24 3f 26 69 05 3e 69 87 19 be a6 a4 01 3d
       0.6445127 0.13028392 -0.14993061 0.03165116
000270 6b 84 0f 3f 56 da 27 3f 2d 77 c1 3e 1e 26 26 bd
       0.5606143 0.6556753 0.37786236 -0.040563695
000280 ac 6a 16 3f 7a a9 4d 3b 70 ff 29 bd 4f f2 02 3f
       0.5875652 0.0031381533 -0.04150337 0.51150984
000290 90 67 86 bd 47 df d9 3e a2 12 03 bd 99 52 af 3e
       -0.06562722 0.4255316 -0.03200019 0.34242705
0002a0 46 66 76 be fa d5 7f 3c 5a 4a 28 bd 4d d4 03 be
       -0.24062452 0.015614981 -0.041086532 -0.12873955
0002b0 a9 d9 0e 3f 04 ab 17 3d 69 8c 1d 3f 30 cd 5d 3d
       0.55800873 0.037028328 0.61542374 0.05415076
0002c0 e4 50 08 3e e4 a8 7c bd 35 9f 46 3d af cf b5 bd
       0.13312107 -0.061684504 0.048491675 -0.08877503
0002d0 b1 7b 28 3e 63 9a 95 3e e6 9a 06 3f f4 10 b8 3e
       0.16453435 0.2921935 0.52580106 0.35950434
0002e0 aa c2 df bc 10 dc bd 3e a1 d7 a4 bf de c6 0d 3f
       -0.027314503 0.37081957 -1.2878305 0.5538157
0002f0 48 c9 18 3f 56 50 a8 3d ab 51 b1 bc 53 fc 82 bd
       0.5968213 0.08218448 -0.021645388 -0.06395783
000300 5c e8 f5 3c 61 bd b1 bd 82 29 fb bc d9 22 b2 bb
       0.030018024 -0.08678699 -0.03065944 -0.005436283
000310 9e d8 f2 3d 91 0e 61 3d 44 cf b7 3d d3 fb 4b 3d
       0.11857723 0.054945532 0.0897508 0.049800705
000320 25 f7 ac 3b dd 9c 7c 3a 56 a2 ab 3c aa cd 0c 3e
       0.0052784854 0.00096364116 0.020951431 0.1375033
000330 cf 1d c9 bb e9 6d 03 3e 74 b0 ac 3d 3c 64 08 bd
       -0.0061375867 0.12834896 0.08432093 -0.033298716
000340 a5 d0 a3 bc d3 95 90 3c bc c0 31 be 76 ed d9 3b
       -0.01999695 0.017649567 -0.17358679 0.006650622
000350 80 24 c0 bc 36 cd a9 bc 08 29 fe 3c 3c 3b ee 3d
       -0.023454905 -0.020727735 0.031025425 0.11632392
000360 48 4b 60 3d 35 62 00 3e c2 31 0b 3b ce 09 84 bd
       0.054759294 0.12537463 0.0021239375 -0.064471826
000370 dc 98 2a 3d 30 78 cc 3d 74 10 be 3b 8b fc e3 3b
       0.041649684 0.099838614 0.005800301 0.0069575957
000380 84 aa 85 3d e2 53 b7 bb 8a 22 59 bd 81 f9 1e 3e
       0.06526664 -0.0055947164 -0.053011455 0.15524866
000390 ad 75 9f 3d b0 ee 87 3d e9 b9 f6 3b 12 27 cb 3c
       0.07786117 0.06637323 0.0075294864 0.024798904
0003a0 c3 dc 25 ba f0 83 2e bc b9 ac 3f 3e 55 ce 07 bc
       -0.00063271465 -0.010651574 0.18718232 -0.0082889395
0003b0 11 bc a8 3d ae 7a 45 be 1a 04 fb 3d 95 8a 00 bd
       0.08238996 -0.1928508 0.12256642 -0.031382162
0003c0 a3 06 7d bd 7f 9f b6 be 9c a5 3f bc 35 3c 08 be
       -0.061773907 -0.3566856 -0.011697199 -0.13304217
0003d0 fe 9a eb 3c cd 86 9f 3d 71 7b da 3d a6 c9 f2 3d
       0.02876043 0.07789383 0.10668076 0.11854868
0003e0 d3 2c 55 bc a9 65 23 3e 40 38 f7 be 46 f7 98 3d
       -0.013011175 0.15956749 -0.48285103 0.07469039
0003f0 a0 60 53 3d b1 c9 2a 3d bc 93 1d be d3 5d bb bc
       0.05160582 0.041696254 -0.15388387 -0.022871887

bias f4 [64]
000000 df 70 25 c0 86 89 0a c0 95 c0 4c 3f e1 82 ad 3f
       -2.585014 -2.1646438 0.79981357 1.3555566
000010 1d 1e dc bf 79 6d e6 bf 5c d0 8c 3f 44 c0 04 c0
       -1.719669 -1.8002158 1.1001086 -2.074235
000020 67 c9 e3 3f ff 59 f9 3f a4 f6 2f bf 0a 09 b3 bf
       1.7795838 1.948059 -0.6873572 -1.3987134
000030 c6 ff 77 3f 25 4a 0e c0 1b ee c0 3f b0 82 72 3f
       0.96874654 -2.2232754 1.5072664 0.94730663
000040 34 73 20 3f ab 75 02 c0 ea 50 e4 bf 27 4e 36 3f
       0.62675786 -2.038432 -1.7837193 0.71213
000050 3f 41 93 3f cf 52 01 c0 e7 0e ed bf 82 30 1a c0
       1.1504287 -2.0206792 -1.8520173 -2.4092107
000060 e1 ee d5 3f 57 00 b8 3f ae 69 ea bf 62 d6 0a 3f
       1.6713525 1.4375104 -1.8313501 0.5423337
000070 05 86 e8 bf f9 f8 20 3f b5 df f9 3f 32 40 a0 bf
       -1.81659 0.628799 1.9521395 -1.2519591
000080 9d bf fe bf 90 06 ac bf ea 88 86 3f 1a 2b f1 3f
       -1.9902226 -1.3439503 1.0510533 1.8841279
000090 33 94 f8 3f 69 62 0d c0 02 1e 06 c0 ed ea 99 3f
       1.9420227 -2.2091315 -2.0955815 1.2024819
0000a0 45 c7 16 bf b5 40 35 3f b3 4e 0d c0 57 c1 c5 3f
       -0.5889781 0.7080186 -2.2079284 1.5449628
0000b0 90 57 d3 3e e2 e5 8e bf da 01 5f bf 4c b2 21 3f
       0.41277742 -1.1163905 -0.871122 0.63162684
0000c0 40 f0 a9 bf d4 1b 7b 3e 61 b5 f2 bf 8b 71 54 3f
       -1.3276443 0.24522334 -1.8961602 0.8298575
0000d0 3b 0d 18 c0 c1 ab dd 3f ea fa 9e 3f 24 dc ad 3f
       -2.3758075 1.731804 1.2420323 1.3582807
0000e0 9c 88 d9 bf 2f ab df 3e 9e 47 26 3f 8d 78 ca bf
       -1.6994815 0.4368529 0.6495303 -1.5818039
0000f0 01 fa 85 3f 46 65 58 bf 83 75 1d c0 06 69 f7 bf
       1.046692 -0.8452953 -2.4602973 -1.9328926

weight f4 [1, 64]
000000 18 54 a5 bf 0c 1f dd be 8b 46 9e 3e b8 f6 01 3f
       -1.2916288 -0.4318775 0.30913195 0.5076709
000010 0d 6d a9 be 6d 64 04 bf 8e b7 a0 3e 9f 98 f3 be
       -0.33091012 -0.5171574 0.3139004 -0.47577378
000020 d5 9b e0 3e 78 90 80 3e 10 e3 d3 be 43 dd 2a bf
       0.4386889 0.2511022 -0.41384172 -0.6674387
000030 42 d4 5a 3f f6 db 00 bf fb da a8 3e 6f 1f 95 3e
       0.8548013 -0.50335634 0.3297957 0.29125544
000040 bd 0e af 3e 60 df ce be 48 9b eb be 6d 89 be 3e
       0.34190932 -0.40404797 -0.46016908 0.37214223
000050 d7 9a c6 3e d8 cc ce be 55 4f ff be 19 09 9d bf
       0.38790008 -0.40390658 -0.49865213 -1.2268401
000060 4b 17 bc 3e 99 3b 00 3f ee f9 ef be 94 be 67 3e
       0.3673652 0.5009094 -0.4687037 0.22631294
000070 34 58 f1 be 19 4c 72 3e f5 1d 81 3e c4 14 09 bf
       -0.47137606 0.23661841 0.25218168 -0.5354731
000080 98 66 bf be 0c 5c 13 bf 14 1a bc 3e 85 7e de 3e
       -0.3738296 -0.5756233 0.36738646 0.43455902
000090 15 93 6d 3f 5d 58 19 bf 5c b6 78 bf 65 84 05 3f
       0.92802554 -0.59900457 -0.9715326 0.52155143
0000a0 57 3a 8e be ec c8 6b 3e 4a 92 d8 be c7 29 26 3f
       -0.27778885 0.23025864 -0.4229911 0.649075
0000b0 ed 98 87 3e 0b 9a d8 be 8f 08 3c be 01 21 9b 3e
       0.2648386 -0.42305025 -0.1836264 0.30298617
0000c0 cc 26 99 be 22 a8 98 3e 93 39 43 bf e8 84 8f 3e
       -0.29912412 0.29815775 -0.76259726 0.28031087
0000d0 f7 48 50 bf 82 31 14 3f 84 31 0e 3f 9e a4 fb 3e
       -0.81361336 0.5788804 0.55544305 0.4914903
0000e0 ec 99 15 bf 07 40 87 3e 36 8f aa 3e 50 eb c7 be
       -0.5843799 0.26416036 0.33312386 -0.39046717
0000f0 93 ca 64 3e f4 0c 71 be 41 c7 83 bf 9c bb d8 be
       0.22342901 -0.23540097 -1.0295182 -0.42330635
