model-4737.pt (torch, 9963 bytes, 20 tensors)

layers.0.weight f4 [8]
000000 86 96 7a 3f e4 95 8a 3f 5a 1b 80 3f 57 e9 82 3f
       0.9788593 1.0826993 1.0008347 1.022746
000010 23 cd 7a 3f 66 21 79 3f a6 39 81 3f 1f ae 76 3f
       0.97969264 0.97316587 1.0095718 0.9635944

layers.0.bias f4 [8]
000000 62 a2 95 3d 4c 2e 3e bd 34 c8 fb 3d 87 28 bb 3c
       0.07306363 -0.04643087 0.12294045 0.022846473
000010 d4 f3 72 bc 2c 31 94 3d e1 33 9d bd 72 72 f1 bd
       -0.014828641 0.07235941 -0.07675911 -0.11789407

layers.0.running_mean f4 [8]
000000 60 a5 ae 42 36 0e b1 42 a8 49 b2 42 84 37 b0 42
       87.323 88.527756 89.14386 88.10843
000010 9a f3 ac 42 df 6b af 42 8d ad b5 42 d2 22 b2 42
       86.475784 87.710686 90.83897 89.06801

layers.0.running_var f4 [8]
000000 94 29 55 45 8e da 61 45 9e 23 93 45 d0 ff 73 45
       3410.5986 3613.6597 4708.452 3903.9883
000010 28 c3 15 45 f6 80 30 45 50 7c 9a 45 b5 90 5d 45
       2396.1973 2824.06 4943.539 3545.0442

layers.1.weight f4 [16, 8]
000000 21 15 15 3e 22 88 30 be bd 2b 18 3e f2 20 02 be
       0.14558841 -0.1723943 0.14860435 -0.1270788
000010 4f a3 86 be 6b 49 00 be ce aa f7 be 69 a4 a1 be
       -0.2629647 -0.12528007 -0.483725 -0.31570747
000020 ad c7 1f bd 11 28 de bc f3 fa 5b 3e f1 86 c5 3e
       -0.039008785 -0.027118715 0.21482448 0.38579515
000030 b5 95 95 3e 26 8d 57 3d 75 37 c8 3c 7b a7 71 be
       0.2921578 0.052624844 0.024440506 -0.23599045
000040 66 e3 8f 3e ad ba a3 3e c3 c1 de bc 99 cf c9 3c
       0.2810318 0.3197836 -0.027192002 0.024635123
000050 eb 2b 2e be d4 5e 8b 3d 98 b1 a1 3e 7d 59 1f 3e
       -0.17008941 0.068051964 0.31580806 0.15561481
000060 18 48 2f 3e 65 e6 cf 3b ba 47 66 be 8e 69 98 3d
       0.17117345 0.006344604 -0.22488299 0.07442008
000070 66 62 65 3e 39 5d 70 3d b6 22 f0 bc 5e ff e5 ba
       0.22400817 0.058682654 -0.029313426 -0.0017547419
000080 6b 29 04 bf cb 75 28 3e de b8 b8 be 31 a3 26 bd
       -0.516257 0.16451184 -0.36078542 -0.040682975
000090 01 55 40 3d 44 09 c8 bd 73 88 59 3e ed 9e 54 3e
       0.046956066 -0.09767392 0.21243457 0.2076375
0000a0 d4 34 0a be 2b ff 10 3d 4e 4b c6 3e 66 c5 54 3e
       -0.13496715 0.035399597 0.38729328 0.20778427
0000b0 d4 3a 4b bc 88 55 94 3d ea 33 0b bd 02 ab c5 3e
       -0.012404162 0.07242876 -0.033985056 0.3860703
0000c0 91 ec ee 3e 9a 95 65 be cb 97 0b be 12 6a be bd
       0.4666486 -0.2242035 -0.13632123 -0.09297575
0000d0 bd 39 ac be b0 ea 92 3e 5d ca 1b 3e 36 58 bf bc
       -0.336378 0.28694677 0.15213914 -0.023357492
0000e0 4b 7b 61 3e 23 9b 00 3f 74 21 5e 3d ec 5c cc bb
       0.22019689 0.5023672 0.054231122 -0.006236663
0000f0 43 3e 8a 3e ca 0a 09 3e 51 ff eb bd a4 59 43 3d
       0.27000627 0.13383022 -0.11523307 0.04769291
000100 c3 93 33 bc 6b e1 f2 3d 73 5d 23 3e 1e 85 0f 3e
       -0.010960522 0.11859401 0.15953617 0.14015624
000110 f9 c8 1b 3e a9 11 0f 3e ca f7 62 3d 43 d7 48 be
       0.15213384 0.1397158 0.05541209 -0.19613366
000120 4a 54 48 3d 9a bb 60 3e 69 4f 3a 3c ad f2 af bd
       0.04890851 0.21946564 0.011371472 -0.085912086
000130 9a 7d 5a 3c 79 8f aa be db 9e 09 be 68 36 3c 3e
       0.01333561 -0.33312586 -0.13439505 0.1838013
000140 18 8e b8 3b 8a 4e 4f be f0 9b 25 3e e3 df ad 3e
       0.0056321733 -0.20244804 0.16172767 0.33959875
000150 b6 50 0d be 38 6b 4f be 19 97 99 bd 99 cd 04 3e
       -0.1380032 -0.20255744 -0.07499523 0.12969054
000160 fe f1 79 be 02 ca d8 be ec ea e6 be a5 19 94 be
       -0.24408719 -0.4234162 -0.45101106 -0.28925815
000170 04 c8 6b bc fb bd cf bd 43 b6 e0 bd 5b df 8e 3e
       -0.014390949 -0.10143658 -0.10972264 0.27904782
000180 eb 25 fd bd 08 ab ad 3d c9 9c f7 bd 03 7a 6d be
       -0.12360748 0.08479887 -0.12090451 -0.23191075
000190 b5 bb b1 3d 87 7b d8 3d 34 4e f5 3d 8b 76 ad 3e
       0.086783804 0.10570436 0.11977807 0.33879504
0001a0 5a ff 2f be d4 aa 9e be 33 30 d1 3c 80 e7 7d be
       -0.17187253 -0.30989707 0.025535678 -0.24795341
0001b0 45 63 8f 3e 7d 13 28 bd 61 ca 61 be 4c bd 6e 3c
       0.28005424 -0.04103421 -0.22049858 0.014571499
0001c0 29 d1 54 3d 82 07 8f 3e 59 35 85 3e 8d 9d c8 be
       0.051957283 0.27935416 0.26017264 -0.39182702
0001d0 8b 1a 87 3d 34 91 06 3e 20 d5 4c b9 25 28 59 3c
       0.065968595 0.13141328 -0.00019534351 0.0132542
0001e0 b0 12 91 3d 29 42 9f be ed c3 45 bd 8f d5 e5 3d
       0.070836425 -0.31105164 -0.048282553 0.11222374
0001f0 55 5f 8f be da aa 05 3e 18 b3 c2 be c0 49 c8 be
       -0.2800242 0.13053456 -0.38027263 -0.39118767

layers.1.bias f4 [16]
000000 5d 90 12 3d c3 60 9a bd 18 bc f1 bc 10 e4 dd 3c
       0.035782207 -0.07537987 -0.029508635 0.027086288
000010 72 e7 46 3e 2b a3 1c 3e 2b 2e b4 bd c3 5b 85 3e
       0.19424227 0.15296619 -0.08797868 0.2604657
000020 06 e5 0a 3f 47 36 ac be 9e b9 c1 3d a8 2f 73 3e
       0.5425571 -0.3363516 0.09459232 0.23748648
000030 6f cc 8e 3d 2b f7 a6 be 50 74 b9 3d 2a 17 34 3e
       0.06972586 -0.3261045 0.09055388 0.17586961

layers.3.weight f4 [16]
000000 67 b4 6d 3f 7b bc 88 3f 5c 09 6e 3f 95 40 8b 3f
       0.928534 1.068252 0.9298303 1.0879084
000010 db 5b 6a 3f 4a 5d 82 3f 28 c8 6c 3f 71 5b 87 3f
       0.9154641 1.018472 0.92492914 1.0574781
000020 0a 4f 83 3f 97 df 6b 3f 5d df 7c 3f 78 0f 82 3f
       1.0258496 0.92138046 0.98778325 1.0160971
000030 dd aa 60 3f 24 51 61 3f f8 31 90 3f 03 7d 82 3f
       0.87760717 0.88014436 1.1265249 1.01944

layers.3.bias f4 [16]
000000 cf 23 8b be 34 c9 66 3d 44 6d a8 3d 6f 21 ea 3d
       -0.27175757 0.056344226 0.08223966 0.11432158
000010 fa 08 c7 bd 85 8e c0 3d 03 d7 cd 3d 3a 97 09 3e
       -0.09718509 0.094021834 0.10050776 0.13436595
000020 7f cc 39 3e c4 1c a2 3d 54 ff c3 3d fc 7b 0a be
       0.18144415 0.07915643 0.09570184 -0.13523859
000030 5a e3 0e 3e 67 a6 22 3e 1e cb 61 3d cc 97 bc 37
       0.13953915 0.1588379 0.05512535 2.2482032e-05

layers.3.running_mean f4 [16]
000000 29 1b c3 3e 2d 98 46 3e 20 4e 68 3e 6b 2e 19 3e
       0.3810666 0.19393988 0.22686052 0.14959113
000010 ad bc 64 3e 6f 26 a2 3e c5 09 ff 3d 0f c7 dc 3e
       0.22337599 0.31669948 0.12453035 0.4312062
000020 8d 8d 17 3f e8 75 a9 3c 8a 11 81 3e 35 03 e4 3e
       0.59200364 0.020686105 0.25208694 0.44533697
000030 b4 2d fa 3d 9b 57 7b 3d f5 ef 83 3e f7 5e eb 3e
       0.122157484 0.061362844 0.2576901 0.4597089

layers.3.running_var f4 [16]
000000 f4 b2 19 3e 86 00 8a 3e e6 2b 81 3e 75 f7 86 3d
       0.15009671 0.26953524 0.25228804 0.065901674
000010 a9 53 dd 3d 9b 6f b9 3e 12 1b d5 3d 94 02 14 3f
       0.108069725 0.3621796 0.10405554 0.57816434
000020 63 0f 73 3e 7d 97 83 3c ae 26 ee 3d 5f 23 6c 3e
       0.23736338 0.016063446 0.11628471 0.23060368
000030 80 8e d4 3d 1b 84 99 3c 86 09 47 3e f9 b6 38 3e
       0.10378742 0.01873975 0.19437227 0.18038549

layers.4.weight f4 [16, 16]
000000 51 0d 44 3d 2d 09 6b bd 51 ac ea 3c 62 d1 87 bd
       0.047864262 -0.057381798 0.02864662 -0.066317335
000010 65 6c e3 3d ec 21 19 bd ff 61 25 3e 79 bb 5e 3e
       0.11104659 -0.037385866 0.16150664 0.21751203
000020 c0 a4 77 bd 16 20 98 3d 8e cd bc bd 1b 8e a3 3d
       -0.060459852 0.07427995 -0.09218894 0.07986089
000030 e3 15 76 3e 7a c6 09 3d e3 29 db 3d 93 d6 79 be
       0.24031787 0.033636548 0.10701349 -0.2439826
000040 be 36 1e be c1 f5 c2 3d d6 92 c3 3d 39 50 b6 bc
       -0.1545057 0.0951953 0.09549491 -0.02225505
000050 19 e3 59 be 24 ac 2f bd cc c1 0f be 56 aa 03 be
       -0.21278037 -0.042888775 -0.14038771 -0.12857947
000060 50 da 3a be a4 17 8a 3d 86 0a 0f 3e dc c6 a6 be
       -0.18247342 0.0674279 0.13968858 -0.32573593
000070 0f 40 9d bd 01 8b cb 3d d0 8e 80 bb 9f 24 a6 3d
       -0.07678234 0.09938622 -0.0039232746 0.08112454
000080 4c d1 5e 3e 31 f9 78 be 4e e1 db 3c 89 61 c1 bc
       0.21759528 -0.24313809 0.026840832 -0.023606079
000090 08 23 e1 3c db ec 22 be 97 bb bb bc fe 0c 04 3e
       0.027482525 -0.15910666 -0.022916598 0.12895581
0000a0 0c b4 2b be 0a 6e 1d be 00 53 bc bd 93 e6 88 bc
       -0.16767901 -0.15374008 -0.091955185 -0.016711509
0000b0 7a be 5c be 89 66 0d 3d e1 96 a4 be c2 12 1e be
       -0.21557036 0.034521613 -0.3214636 -0.15436843
0000c0 ec 4e 22 3d 1b be 83 be be 20 ff bd 16 91 b6 bd
       0.039626047 -0.25730976 -0.12457417 -0.08914392
0000d0 ef 51 03 bd a7 ab 92 3d 50 8d b5 be b4 2f 94 3d
       -0.03206056 0.07161646 -0.35459375 0.07235661
0000e0 d1 ea 83 3e 75 06 78 be 40 8e cd bd 16 ac b4 bd
       0.25765088 -0.24221213 -0.10036898 -0.08821885
0000f0 07 87 fa bc 6e 14 fd bd 4b b3 23 bd 69 fa 4d be
       -0.030581964 -0.12357412 -0.03996591 -0.20115055
000100 d7 87 18 3d ff 2c f9 3c ff f2 13 3e 0d f9 7a 3d
       0.037238922 0.030416964 0.14448164 0.06127267
000110 0e a5 ea 3d e8 08 06 3e 04 c3 a5 bc 0b 45 de bd
       0.11457263 0.13089335 -0.020234592 -0.10853013
000120 c5 0c 29 3e 69 fb c0 3c cc 4f 28 3e 5c ce e3 be
       0.16508777 0.023557382 0.1643669 -0.44493377
000130 23 7d 36 be ba 96 73 bd 2e 56 35 3e 2f 99 dc bb
       -0.17821173 -0.059469916 0.17708656 -0.006732128
000140 98 11 63 3d 76 05 b4 bd 5b da 95 3d df f1 72 3c
       0.0554367 -0.08790104 0.073170386 0.014828174
000150 cf b9 c0 be 9a fa 1d be 17 ec 35 3e 6c 3c 40 3c
       -0.3764176 -0.15427628 0.17765842 0.011733156
000160 7c 17 18 bc 3b d1 44 be ef 97 e6 3d fb 31 91 3d
       -0.009282943 -0.1922044 0.11259448 0.07089611
000170 74 9d bd bd 6d 99 f8 bd 4b a0 91 be 1e be 48 be
       -0.092585474 -0.12138639 -0.28442606 -0.19603774
000180 73 dd d9 3c 66 a6 5c be 5e 3e ae be 32 ed 43 be
       0.026594853 -0.21547851 -0.34031957 -0.19133452
000190 96 63 f0 bc 2e 19 50 be a0 50 a3 bd 0f 20 a9 bd
       -0.029344361 -0.20322105 -0.079743624 -0.08258068
0001a0 de 1d 68 be b2 6e 80 bd df a4 49 3a 72 2d bb ba
       -0.22667643 -0.062711135 0.0007692109 -0.0014280512
0001b0 a5 e7 66 be 28 2f 83 bb 92 ce a5 bc 28 e1 19 3c
       -0.22549303 -0.004003424 -0.020240102 0.00939206
0001c0 99 23 9f bd e2 17 bb 3e 85 a9 86 3c 1e ef bb 3d
       -0.077704616 0.3654166 0.016438255 0.09176467
0001d0 de 05 00 bd 3c ca ab 3d 20 2d e4 3d 98 b7 f7 bd
       -0.031255595 0.083881825 0.111414194 -0.120955646
0001e0 ad dc a5 bc c0 68 c2 bb b5 4a 31 3e a3 5b 61 bd
       -0.020246828 -0.0059328973 0.17313655 -0.055019032
0001f0 47 74 86 3c 49 ef 30 3e 77 06 62 3d 4d 34 99 be
       0.016412867 0.1727878 0.055181947 -0.29922715
000200 39 20 15 be 9f cb 44 be 2d 62 27 3d 96 d3 32 3d
       -0.14563073 -0.192183 0.040865112 0.043658815
000210 49 b7 38 be c8 d0 4e 3d 4f f5 97 3c 3a a3 a1 3d
       -0.18038668 0.050492078 0.01854959 0.07892461
000220 0a 35 99 be dd d8 77 b9 e3 56 bb 3d d2 65 26 bd
       -0.29923278 -0.00023636543 0.09147432 -0.040624447
000230 c4 30 d9 3d 92 1d bd 3d de 49 ac bd 23 83 95 3d
       0.106050044 0.09234156 -0.084125265 0.07300403
000240 9d 04 36 ba d1 c1 a9 bd e6 1c 53 3d ab b7 21 be
       -0.00069434365 -0.08288921 0.05154123 -0.1579272
000250 01 cb 14 be b6 69 28 3d b5 68 45 bd c6 2d b0 be
       -0.14530565 0.04111644 -0.04819556 -0.34409922
000260 e4 76 2e 3e 8b 84 db bd f3 25 54 be 00 1b e7 3d
       0.1703754 -0.1071864 -0.20717601 0.11284447
000270 51 f0 08 3e a9 43 e9 bd d6 ba 6b be e1 11 72 bd
       0.13372923 -0.11389858 -0.23020491 -0.059099082
000280 66 51 51 be 27 da 3e bd c9 08 dc 3c 2b 17 57 be
       -0.20441207 -0.046594765 0.026859658 -0.21004932
000290 05 45 f7 ba 56 bd 20 be 29 59 50 3d be 9a 2c bc
       -0.0018865174 -0.15697226 0.05086628 -0.01053494
0002a0 41 25 28 bc 78 5e 1a bd 58 78 f5 39 7e 2c de bc
       -0.010262788 -0.03768775 0.00046819705 -0.027120825
0002b0 96 99 62 bd d0 33 45 be 48 46 f8 3d 90 51 1e be
       -0.055322252 -0.19258046 0.1212278 -0.15460801
0002c0 5e a0 c7 bd 20 31 31 be a6 c3 74 be 83 07 d0 bd
       -0.097473845 -0.17303896 -0.23902759 -0.10157683
0002d0 e1 37 39 be bd 63 eb bd f8 7b 0e be a7 6e 52 be
       -0.18087722 -0.11493633 -0.13914478 -0.20550023
0002e0 ad 2e 23 3e 0e 5a fd bc 8b 97 d3 bd ee 8e 74 bd
       0.15935774 -0.03092673 -0.10331639 -0.05970662
0002f0 3b cd 98 3c d6 c1 4b bd 47 76 8f be 04 58 b8 bd
       0.018652549 -0.049745403 -0.28019926 -0.09001163
000300 68 9a 94 bd c8 41 e7 3d 36 76 52 3e b3 cf 17 be
       -0.07256013 0.11291844 0.20552906 -0.14825325
000310 13 77 18 be 61 bb 04 be 4c 3e 67 bd b2 98 81 bb
       -0.14889173 -0.12962104 -0.056455895 -0.0039549703
000320 0b ec 35 be 54 c8 e2 bd 55 5e 6d bd 26 48 20 bc
       -0.17765824 -0.11073366 -0.05795129 -0.0097828265
000330 d1 13 f0 3b 09 48 68 bd 55 ab b4 3c 38 00 72 be
       0.007326581 -0.056709323 0.022054354 -0.23632896
000340 46 73 1d 3d 0a 88 6c be 39 fa 12 bd eb 0e 35 be
       0.03844001 -0.2309877 -0.035883162 -0.17681472
000350 86 39 29 be c3 22 d1 bd ab 3d 9a bd 7f c2 f5 3c
       -0.1652585 -0.102117084 -0.075312935 0.02999997
000360 ae 8b 23 3e a5 df 57 3d 9a 52 95 bd 8a 5e 31 3e
       0.15971252 0.05270352 -0.072911456 0.1732122
000370 04 52 f8 3d 3c 08 25 bd 41 6b ab be 8e fe d0 bd
       0.12125018 -0.040291056 -0.33480266 -0.102048025
000380 89 56 52 3d fd 4e 94 be 35 2e a5 be d9 ed a7 be
       0.051352058 -0.28966513 -0.32261816 -0.3279865
000390 d8 b0 28 3c af 1b 4c be ff dc 24 3c 58 8b b9 3d
       0.010296069 -0.19932435 0.010062455 0.09059781
0003a0 b9 12 87 3b 27 53 0b be 8d 16 28 be ae a8 18 3e
       0.004122105 -0.13605939 -0.16414852 0.14908096
0003b0 5a a6 a8 3b e3 10 38 be 2b 4f 38 3d c6 34 81 bb
       0.005146784 -0.17975192 0.044997375 -0.0039430587
0003c0 d8 7e ce 3c c5 60 90 be 49 00 ca 3d 4c 32 9e be
       0.025206968 -0.2819883 0.09863336 -0.30897748
0003d0 f6 17 9f bd ac e0 8e be c4 d9 14 be d0 92 43 3e
       -0.07768242 -0.27905786 -0.14536196 0.19098973
0003e0 1e 45 c4 bd a5 71 20 be 73 5f bb bd 8d 66 7b 3d
       -0.095834956 -0.15668352 -0.09149065 0.061377097
0003f0 c7 e2 90 3d c2 4e f6 bc 15 7c f9 bd b7 45 94 bd
       0.07074504 -0.030066852 -0.1218187 -0.072398596

layers.4.bias f4 [16]
000000 d9 5c 0c be 85 a3 cc 3e 45 c7 5b be ed 0b ab bc
       -0.13707294 0.39968506 -0.21462734 -0.02087971
000010 13 93 4f 3e ac 26 d7 bd 60 43 49 be 69 30 18 3e
       0.20270948 -0.10505423 -0.19654608 0.14862217
000020 8d 41 fb 3e 23 b4 1d be c5 62 16 3e d0 74 ef 3d
       0.4907345 -0.15400748 0.14686115 0.11692202
000030 27 4a 85 3e 94 01 fe 3c 9a 3e 27 bd f9 b5 0d 3d
       0.26033136 0.031006612 -0.040831186 0.03459737

layers.6.weight f4 [16]
000000 ef 4c 92 3f cb c7 9a 3f 0a bd a5 3f 52 48 aa 3f
       1.1429728 1.2092222 1.2948315 1.330332
000010 6f ad b5 3f 7b d6 a2 3f 67 87 ac 3f c3 4c b6 3f
       1.4193553 1.2721704 1.3478822 1.4242176
000020 c2 ed 98 3f cb 31 a6 3f 4d c3 88 3f 20 a0 ad 3f
       1.1947558 1.2983946 1.0684601 1.3564491
000030 24 bb ad 3f 8c 2d b0 3f 50 1b b4 3f de 6e ba 3f
       1.3572736 1.37639 1.4070835 1.4565084

layers.6.bias f4 [16]
000000 e9 cb 84 be 56 b9 43 3e 3e 23 79 be 95 0a 3f be
       -0.2593682 0.19113669 -0.2432985 -0.1865638
000010 85 71 ac be 66 af 46 be f7 2f c3 bd 60 6d 9c be
       -0.3368036 -0.19402847 -0.09530633 -0.30552197
000020 cd 6a 57 3e dc 61 83 be 1d ab 29 3e 3f 8c 14 3e
       0.21036835 -0.25660598 0.16569181 0.14506625
000030 d2 ba 0b 3e 83 91 12 be 8c 34 aa 3d 3b 62 11 3e
       0.13645485 -0.14313321 0.08310804 0.14197628

layers.6.running_mean f4 [16]
000000 8f 98 39 3e 86 59 00 3f 3b df 95 3d 8c 91 1f 3e
       0.18124603 0.501366 0.073179685 0.15582865
000010 f0 58 eb 3e 14 a4 d5 3d c8 76 36 3e 14 51 d4 3e
       0.4596629 0.10431686 0.17818749 0.41468108
000020 f1 51 12 3f c9 81 69 3d 89 2a 82 3e b0 7e 80 3e
       0.5715628 0.05700854 0.25423077 0.25096655
000030 9e 9b 8c 3e ac a1 29 3e ee d0 48 3e 05 b8 41 3e
       0.27462476 0.16565579 0.1961095 0.18917854

layers.6.running_var f4 [16]
000000 e6 29 58 3e 2f 1d e2 3d 28 68 6d 3c fd ac 53 3d
       0.21109733 0.110407226 0.014490165 0.051678646
000010 d7 60 ba 3e 38 57 fe 3c ed 76 45 3d 2f 33 bb 3e
       0.36402008 0.031047449 0.04820912 0.36562487
000020 90 a4 8f 3d f0 73 14 3c 12 ff a7 3d 37 92 36 3d
       0.0701381 0.009060845 0.08202948 0.044573035
000030 82 81 83 3d 51 a1 05 3d 99 54 6d 3d 86 55 1a 3d
       0.06421186 0.032624546 0.057942007 0.037679218

layers.7.weight f4 [8, 16]
000000 24 2a bb bd 95 5f 85 3e ab 53 09 bf be ac ca 3e
       -0.09138897 0.26049486 -0.5364329 0.39584917
000010 3a 7b 3f be c4 02 f0 3d 2b 51 3c be 61 14 e2 bd
       -0.18699351 0.117192775 -0.18390338 -0.11039043
000020 7d ba c3 3e 52 7c d9 be 97 cd a0 3e b0 d4 4e be
       0.38228217 -0.4247766 0.31406853 -0.20198321
000030 f8 66 a5 3e 89 32 95 be 97 da 01 bf 88 a3 84 be
       0.3230512 -0.29140118 -0.50724167 -0.25906014
000040 90 bb 17 3d f2 bc 22 3e e8 a6 f1 be 23 0c 52 bb
       0.037044108 0.1589239 -0.47197652 -0.003205069
000050 b8 6a 92 3e 0b 7e 96 3e ff 5f 2b be dc cd d1 3d
       0.28597045 0.29393038 -0.16735838 0.10244343
000060 d4 06 95 3b e0 38 f0 be c6 a7 a9 3c 30 85 c6 be
       0.004547933 -0.46918392 0.020709883 -0.3877349
000070 dd 06 59 3e f5 26 b4 be 10 b0 0c be 53 6f f9 be
       0.21194024 -0.35185972 -0.13739038 -0.48717746
000080 45 c3 4d be 5e 56 c4 3e 65 d9 f0 be 1b 16 df 3e
       -0.2009402 0.38347143 -0.4704086 0.43571553
000090 ea 85 96 be c7 e6 12 3e 83 b6 9c be 6b bc 9d be
       -0.29399043 0.14345847 -0.30607995 -0.30807814
0000a0 ef 25 47 3e 4e 5a cb be 1a cf 9a 3e c2 72 b2 be
       0.19448064 -0.39717335 0.3023613 -0.34853178
0000b0 ac bd 92 3e b8 f8 cb be 2b 42 08 bf 24 3e d4 be
       0.28660333 -0.39838195 -0.53225964 -0.4145366
0000c0 e7 bc ad bd f4 83 ac 3e 23 0a a3 be d8 4c 96 3d
       -0.08483296 0.33694422 -0.3184367 0.073388755
0000d0 a0 a9 c7 be 80 ff b7 bc c2 34 1c bf 99 36 9c be
       -0.389966 -0.0224607 -0.61018 -0.30510405
0000e0 5c 65 64 3e 6c fa f0 be 33 60 9f 3c cd be 99 be
       0.2230429 -0.47066057 0.019455051 -0.30028382
0000f0 36 00 0f 3f a1 88 fe be 9d a8 29 be af ca 52 be
       0.55859697 -0.49713615 -0.16568227 -0.2058513
000100 4b 39 92 bd cf 8c e5 bd 87 1b 01 bd bb 18 4c be
       -0.07139834 -0.11208498 -0.031520393 -0.19931309
000110 47 f8 fe 3e 30 dd 20 be a3 78 c4 bd 91 7f 6d 3e
       0.49798796 -0.15709376 -0.09593322 0.23193194
000120 e6 bf a7 be 69 42 5c 3e 6e 25 9d 3d 1f e4 a6 be
       -0.32763594 0.21509708 0.07673155 -0.32595918
000130 b0 96 1d bf 41 e5 b4 3d 01 f8 19 be 07 a9 6b be
       -0.61558056 0.08832789 -0.15036012 -0.23013698
000140 81 a3 e4 be 94 f4 f6 bd 0f 45 88 3e 09 bc f0 be
       -0.44655994 -0.12058368 0.26615188 -0.4701846
000150 34 69 c3 be f9 b1 e9 be 3f d1 0c 3f 25 7d ed be
       -0.381662 -0.45643595 0.55006784 -0.4638454
000160 61 35 0e be 1d a7 70 3e 3c cd f2 bd 94 59 01 3f
       -0.1388755 0.23501249 -0.118555516 0.5052731
000170 06 d1 b9 be 78 35 18 3f 88 cd 22 3f aa 4d 17 3f
       -0.36292285 0.59456587 0.63594866 0.5910288
000180 2c 8c 13 be 44 b2 0a 3e d8 48 c9 be f9 c8 29 3e
       -0.1440894 0.13544565 -0.39313388 0.16580571
000190 3e 31 20 be de a6 bf 3c 0c c3 e0 be ed 8d e8 bd
       -0.15643784 0.023394998 -0.4389881 -0.11355195
0001a0 c4 6d 9c 3e f3 e1 ec be 23 ed de 3d ed 3d 2e bd
       0.30552495 -0.46266136 0.10885074 -0.042539526
0001b0 d2 ef f0 3e d1 6b dc be 6a 3d a9 be 84 07 a0 be
       0.47057968 -0.43051007 -0.33054668 -0.31255734
0001c0 9a 40 a2 be 3f 13 7f be 2e 9b 6d 3e 95 62 e3 be
       -0.31689912 -0.24909686 0.23203728 -0.4441115
0001d0 ed c8 6e be 1c 8b d7 be 25 cb cc 3e 84 06 e1 be
       -0.23318835 -0.4209832 0.39998737 -0.43950284
0001e0 e7 1f 62 bc 88 cc 97 3e 5a 30 9f bd 67 e2 15 3f
       -0.013801551 0.29648232 -0.07772894 0.5854859
0001f0 bb 60 8a be 75 49 01 3f a1 f9 1a 3f ba b2 2c 3f
       -0.27026924 0.5050271 0.60537153 0.67460215

layers.7.bias f4 [8]
000000 da db b6 3e fd fc b1 3e b4 21 4c 3d 92 15 93 3e
       0.35714608 0.34763327 0.04983683 0.28727394
000010 dc d0 8c be 04 76 37 3e c0 6f 0d 3e 0a 6b e3 3e
       -0.27503097 0.17916113 0.1381216 0.44417602

layers.10.weight f4 [3, 8]
000000 bd 19 58 3f c1 97 b4 bd 35 8b 0d 3f e6 de 01 3f
       0.84414274 -0.08818007 0.5529054 0.5073074
000010 e8 4e 9f be 75 cf ad be 3c 25 1e 3f 4f 99 ff be
       -0.31114888 -0.3394734 0.61775565 -0.49921653
000020 f1 25 13 be c0 e9 88 bf e8 48 09 bf 66 1a 67 be
       -0.14369942 -1.0696335 -0.5362687 -0.22568664
000030 bf 01 60 bf d0 86 18 3f 84 73 02 bf 38 37 ee 3e
       -0.87502664 0.5958071 -0.5095751 0.46526504
000040 7c ae d9 be 01 6b 05 3e a5 49 71 bf 88 8b 85 bf
       -0.42515934 0.130291 -0.94253 -1.0433207
000050 eb 1c ae 3e 33 89 bb bf a7 d4 0f bf 31 b3 8c bf
       0.34006438 -1.4651245 -0.56183857 -1.0992185

layers.10.bias f4 [3]
000000 77 8f 39 bf 67 d7 ae 3f 24 f0 7a bf
       -0.72484535 1.3659486 -0.98022676
